ST Edge AI Core v3.0.0-20426 123672867
Created date          : 2026-01-09 17:05:00
Parameters            : generate -m st_ssd_mobilenet_v1_025_192_int8.tflite --target stm32h7

Exec/report summary (generate)
------------------------------------------------------------------------------------------------------------------------------------------------------------
model file         :   STM32H7-GettingStarted-ObjectDetection/Application/Network/st_ssd_mobilenet_v1_025_192_int8.tflite   
type               :   tflite                                                                                                                               
c_name             :   network                                                                                                                              
compression        :   lossless                                                                                                                             
options            :   allocate-inputs, allocate-outputs, use-lite-runtime, use-st-ai                                                                       
optimization       :   balanced                                                                                                                             
target/series      :   stm32h7                                                                                                                              
workspace dir      :   STM32H7-GettingStarted-ObjectDetection/Application/Network/st_ai_ws                                  
output dir         :   STM32H7-GettingStarted-ObjectDetection/Application/Network/st_ai_output                              
model_fmt          :   sa/ua per tensor                                                                                                                     
model_name         :   st_ssd_mobilenet_v1_025_192_int8                                                                                                     
model_hash         :   0x725b564017a637334c6c5f9249247ffc                                                                                                   
params #           :   436,590 items (483.16 KiB)                                                                                                           
------------------------------------------------------------------------------------------------------------------------------------------------------------
input 1/1          :   'serving_default_input_10', uint8(1x192x192x3), 108.00 KBytes, QLinear(0.007843138,127,uint8), activations                           
output 1/3         :   'conversion_126', f32(1x3830x2), 29.92 KBytes, activations                                                                           
output 2/3         :   'conversion_133', f32(1x3830x4), 59.84 KBytes, activations                                                                           
output 3/3         :   'conversion_141_const', f32(1x3830x4), 59.84 KBytes, activations                                                                     
outputs (total)    :   149.61 KBytes                                                                                                                        
macc               :   40,451,938                                                                                                                           
weights (ro)       :   494,760 B (483.16 KiB) (1 segment) / -1,251,600(-71.7%) vs float model                                                               
activations (rw)   :   246,256 B (240.48 KiB) (1 segment) *                                                                                                 
ram (total)        :   246,256 B (240.48 KiB) = 246,256 + 0 + 0                                                                                             
------------------------------------------------------------------------------------------------------------------------------------------------------------
(*) 'input'/'output' buffers are allocated in the activations buffer

Model name - st_ssd_mobilenet_v1_025_192_int8
------ ------------------------------------------------------- ----------------------- --------------- ----------- -------------------------- --- -------- ------------------- ---------------------- 
m_id   layer (type,original)                                   oshape                  param/size             macc               connected to   | c_size   c_macc              c_type                 
------ ------------------------------------------------------- ----------------------- --------------- ----------- -------------------------- --- -------- ------------------- ---------------------- 
0      serving_default_input_10 (Input, )                      [b:1,h:192,w:192,c:3]                                                            |          +221,184(+100.0%)   Conversion_[1]         
       conversion_0 (Conversion, QUANTIZE)                     [b:1,h:192,w:192,c:3]                       221,184   serving_default_input_10   |          -221,184(-100.0%)   
------ ------------------------------------------------------- ----------------------- --------------- ----------- -------------------------- --- -------- ------------------- ---------------------- 
1      conv2d_1 (Conv2D, CONV_2D)                              [b:1,h:96,w:96,c:8]     224/248           1,990,664               conversion_0   |                              Conv2D_[2]             
       nl_1_nl (Nonlinearity, CONV_2D)                         [b:1,h:96,w:96,c:8]                          73,728                   conv2d_1   |          -73,728(-100.0%)    
------ ------------------------------------------------------- ----------------------- --------------- ----------- -------------------------- --- -------- ------------------- ---------------------- 
2      conv2d_2 (Conv2D, DEPTHWISE_CONV_2D)                    [b:1,h:96,w:96,c:8]     80/104              663,560                    nl_1_nl   |                              Pad_/Conv2D_[3, 4]     
       nl_2_nl (Nonlinearity, DEPTHWISE_CONV_2D)               [b:1,h:96,w:96,c:8]                          73,728                   conv2d_2   |          -73,728(-100.0%)    
------ ------------------------------------------------------- ----------------------- --------------- ----------- -------------------------- --- -------- ------------------- ---------------------- 
3      conv2d_3 (Conv2D, CONV_2D)                              [b:1,h:96,w:96,c:16]    144/192           1,179,664                    nl_2_nl   |                              Conv2D_[5]             
       nl_3_nl (Nonlinearity, CONV_2D)                         [b:1,h:96,w:96,c:16]                        147,456                   conv2d_3   |          -147,456(-100.0%)   
------ ------------------------------------------------------- ----------------------- --------------- ----------- -------------------------- --- -------- ------------------- ---------------------- 
4      pad_4 (Pad, PAD)                                        [b:1,h:97,w:97,c:16]                                                   nl_3_nl   |                              Pad_[6]                
------ ------------------------------------------------------- ----------------------- --------------- ----------- -------------------------- --- -------- ------------------- ---------------------- 
5      conv2d_5 (Conv2D, DEPTHWISE_CONV_2D)                    [b:1,h:48,w:48,c:16]    160/208             331,792                      pad_4   |                              Conv2D_[7]             
       nl_5_nl (Nonlinearity, DEPTHWISE_CONV_2D)               [b:1,h:48,w:48,c:16]                         36,864                   conv2d_5   |          -36,864(-100.0%)    
------ ------------------------------------------------------- ----------------------- --------------- ----------- -------------------------- --- -------- ------------------- ---------------------- 
6      conv2d_6 (Conv2D, CONV_2D)                              [b:1,h:48,w:48,c:32]    544/640           1,179,680                    nl_5_nl   |                              Conv2D_[8]             
       nl_6_nl (Nonlinearity, CONV_2D)                         [b:1,h:48,w:48,c:32]                         73,728                   conv2d_6   |          -73,728(-100.0%)    
------ ------------------------------------------------------- ----------------------- --------------- ----------- -------------------------- --- -------- ------------------- ---------------------- 
7      conv2d_7 (Conv2D, DEPTHWISE_CONV_2D)                    [b:1,h:48,w:48,c:32]    320/416             663,584                    nl_6_nl   |                              Pad_/Conv2D_[9, 10]    
       nl_7_nl (Nonlinearity, DEPTHWISE_CONV_2D)               [b:1,h:48,w:48,c:32]                         73,728                   conv2d_7   |          -73,728(-100.0%)    
------ ------------------------------------------------------- ----------------------- --------------- ----------- -------------------------- --- -------- ------------------- ---------------------- 
8      conv2d_8 (Conv2D, CONV_2D)                              [b:1,h:48,w:48,c:32]    1,056/1,152       2,359,328                    nl_7_nl   |                              Conv2D_[11]            
       nl_8_nl (Nonlinearity, CONV_2D)                         [b:1,h:48,w:48,c:32]                         73,728                   conv2d_8   |          -73,728(-100.0%)    
------ ------------------------------------------------------- ----------------------- --------------- ----------- -------------------------- --- -------- ------------------- ---------------------- 
9      pad_9 (Pad, PAD)                                        [b:1,h:49,w:49,c:32]                                                   nl_8_nl   |                              Pad_[12]               
------ ------------------------------------------------------- ----------------------- --------------- ----------- -------------------------- --- -------- ------------------- ---------------------- 
10     conv2d_10 (Conv2D, DEPTHWISE_CONV_2D)                   [b:1,h:24,w:24,c:32]    320/416             165,920                      pad_9   |                              Conv2D_[13]            
       nl_10_nl (Nonlinearity, DEPTHWISE_CONV_2D)              [b:1,h:24,w:24,c:32]                         18,432                  conv2d_10   |          -18,432(-100.0%)    
------ ------------------------------------------------------- ----------------------- --------------- ----------- -------------------------- --- -------- ------------------- ---------------------- 
11     conv2d_11 (Conv2D, CONV_2D)                             [b:1,h:24,w:24,c:64]    2,112/2,304       1,179,712                   nl_10_nl   |                              Conv2D_[14]            
       nl_11_nl (Nonlinearity, CONV_2D)                        [b:1,h:24,w:24,c:64]                         36,864                  conv2d_11   |          -36,864(-100.0%)    
------ ------------------------------------------------------- ----------------------- --------------- ----------- -------------------------- --- -------- ------------------- ---------------------- 
12     conv2d_12 (Conv2D, DEPTHWISE_CONV_2D)                   [b:1,h:24,w:24,c:64]    640/832             331,840                   nl_11_nl   |                              Pad_/Conv2D_[15, 16]   
       nl_12_nl (Nonlinearity, DEPTHWISE_CONV_2D)              [b:1,h:24,w:24,c:64]                         36,864                  conv2d_12   |          -36,864(-100.0%)    
------ ------------------------------------------------------- ----------------------- --------------- ----------- -------------------------- --- -------- ------------------- ---------------------- 
13     conv2d_13 (Conv2D, CONV_2D)                             [b:1,h:24,w:24,c:64]    4,160/4,352       2,359,360                   nl_12_nl   |                              Conv2D_[17]            
       nl_13_nl (Nonlinearity, CONV_2D)                        [b:1,h:24,w:24,c:64]                         36,864                  conv2d_13   |          -36,864(-100.0%)    
------ ------------------------------------------------------- ----------------------- --------------- ----------- -------------------------- --- -------- ------------------- ---------------------- 
14     conv2d_14 (Conv2D, CONV_2D)                             [b:1,h:24,w:24,c:32]    2,080/2,176       1,179,680                   nl_13_nl   |                              Conv2D_[77]            
------ ------------------------------------------------------- ----------------------- --------------- ----------- -------------------------- --- -------- ------------------- ---------------------- 
15     pad_15 (Pad, PAD)                                       [b:1,h:25,w:25,c:64]                                                  nl_13_nl   |                              Pad_[18]               
------ ------------------------------------------------------- ----------------------- --------------- ----------- -------------------------- --- -------- ------------------- ---------------------- 
16     conv2d_16 (Conv2D, DEPTHWISE_CONV_2D)                   [b:1,h:12,w:12,c:64]    640/832              83,008                     pad_15   |                              Conv2D_[19]            
       nl_16_nl (Nonlinearity, DEPTHWISE_CONV_2D)              [b:1,h:12,w:12,c:64]                          9,216                  conv2d_16   |          -9,216(-100.0%)     
------ ------------------------------------------------------- ----------------------- --------------- ----------- -------------------------- --- -------- ------------------- ---------------------- 
17     conv2d_17 (Conv2D, CONV_2D)                             [b:1,h:12,w:12,c:128]   8,320/8,704       1,179,776                   nl_16_nl   |                              Conv2D_[20]            
       nl_17_nl (Nonlinearity, CONV_2D)                        [b:1,h:12,w:12,c:128]                        18,432                  conv2d_17   |          -18,432(-100.0%)    
------ ------------------------------------------------------- ----------------------- --------------- ----------- -------------------------- --- -------- ------------------- ---------------------- 
18     conv2d_18 (Conv2D, DEPTHWISE_CONV_2D)                   [b:1,h:12,w:12,c:128]   1,280/1,664         166,016                   nl_17_nl   |                              Pad_/Conv2D_[21, 22]   
       nl_18_nl (Nonlinearity, DEPTHWISE_CONV_2D)              [b:1,h:12,w:12,c:128]                        18,432                  conv2d_18   |          -18,432(-100.0%)    
------ ------------------------------------------------------- ----------------------- --------------- ----------- -------------------------- --- -------- ------------------- ---------------------- 
19     conv2d_19 (Conv2D, CONV_2D)                             [b:1,h:12,w:12,c:128]   16,512/16,896     2,359,424                   nl_18_nl   |                              Conv2D_[23]            
       nl_19_nl (Nonlinearity, CONV_2D)                        [b:1,h:12,w:12,c:128]                        18,432                  conv2d_19   |          -18,432(-100.0%)    
------ ------------------------------------------------------- ----------------------- --------------- ----------- -------------------------- --- -------- ------------------- ---------------------- 
20     conv2d_20 (Conv2D, DEPTHWISE_CONV_2D)                   [b:1,h:12,w:12,c:128]   1,280/1,664         166,016                   nl_19_nl   |                              Pad_/Conv2D_[24, 25]   
       nl_20_nl (Nonlinearity, DEPTHWISE_CONV_2D)              [b:1,h:12,w:12,c:128]                        18,432                  conv2d_20   |          -18,432(-100.0%)    
------ ------------------------------------------------------- ----------------------- --------------- ----------- -------------------------- --- -------- ------------------- ---------------------- 
21     conv2d_21 (Conv2D, CONV_2D)                             [b:1,h:12,w:12,c:128]   16,512/16,896     2,359,424                   nl_20_nl   |                              Conv2D_[26]            
       nl_21_nl (Nonlinearity, CONV_2D)                        [b:1,h:12,w:12,c:128]                        18,432                  conv2d_21   |          -18,432(-100.0%)    
------ ------------------------------------------------------- ----------------------- --------------- ----------- -------------------------- --- -------- ------------------- ---------------------- 
22     conv2d_22 (Conv2D, DEPTHWISE_CONV_2D)                   [b:1,h:12,w:12,c:128]   1,280/1,664         166,016                   nl_21_nl   |                              Pad_/Conv2D_[27, 28]   
       nl_22_nl (Nonlinearity, DEPTHWISE_CONV_2D)              [b:1,h:12,w:12,c:128]                        18,432                  conv2d_22   |          -18,432(-100.0%)    
------ ------------------------------------------------------- ----------------------- --------------- ----------- -------------------------- --- -------- ------------------- ---------------------- 
23     conv2d_23 (Conv2D, CONV_2D)                             [b:1,h:12,w:12,c:128]   16,512/16,896     2,359,424                   nl_22_nl   |                              Conv2D_[29]            
       nl_23_nl (Nonlinearity, CONV_2D)                        [b:1,h:12,w:12,c:128]                        18,432                  conv2d_23   |          -18,432(-100.0%)    
------ ------------------------------------------------------- ----------------------- --------------- ----------- -------------------------- --- -------- ------------------- ---------------------- 
24     conv2d_24 (Conv2D, DEPTHWISE_CONV_2D)                   [b:1,h:12,w:12,c:128]   1,280/1,664         166,016                   nl_23_nl   |                              Pad_/Conv2D_[30, 31]   
       nl_24_nl (Nonlinearity, DEPTHWISE_CONV_2D)              [b:1,h:12,w:12,c:128]                        18,432                  conv2d_24   |          -18,432(-100.0%)    
------ ------------------------------------------------------- ----------------------- --------------- ----------- -------------------------- --- -------- ------------------- ---------------------- 
25     conv2d_25 (Conv2D, CONV_2D)                             [b:1,h:12,w:12,c:128]   16,512/16,896     2,359,424                   nl_24_nl   |                              Conv2D_[32]            
       nl_25_nl (Nonlinearity, CONV_2D)                        [b:1,h:12,w:12,c:128]                        18,432                  conv2d_25   |          -18,432(-100.0%)    
------ ------------------------------------------------------- ----------------------- --------------- ----------- -------------------------- --- -------- ------------------- ---------------------- 
26     conv2d_26 (Conv2D, DEPTHWISE_CONV_2D)                   [b:1,h:12,w:12,c:128]   1,280/1,664         166,016                   nl_25_nl   |                              Pad_/Conv2D_[33, 34]   
       nl_26_nl (Nonlinearity, DEPTHWISE_CONV_2D)              [b:1,h:12,w:12,c:128]                        18,432                  conv2d_26   |          -18,432(-100.0%)    
------ ------------------------------------------------------- ----------------------- --------------- ----------- -------------------------- --- -------- ------------------- ---------------------- 
27     conv2d_27 (Conv2D, CONV_2D)                             [b:1,h:12,w:12,c:128]   16,512/16,896     2,359,424                   nl_26_nl   |                              Conv2D_[35]            
       nl_27_nl (Nonlinearity, CONV_2D)                        [b:1,h:12,w:12,c:128]                        18,432                  conv2d_27   |          -18,432(-100.0%)    
------ ------------------------------------------------------- ----------------------- --------------- ----------- -------------------------- --- -------- ------------------- ---------------------- 
28     conv2d_28 (Conv2D, CONV_2D)                             [b:1,h:12,w:12,c:32]    4,128/4,224         589,856                   nl_27_nl   |                              Conv2D_[70]            
------ ------------------------------------------------------- ----------------------- --------------- ----------- -------------------------- --- -------- ------------------- ---------------------- 
29     pad_29 (Pad, PAD)                                       [b:1,h:13,w:13,c:128]                                                 nl_27_nl   |                              Pad_[36]               
------ ------------------------------------------------------- ----------------------- --------------- ----------- -------------------------- --- -------- ------------------- ---------------------- 
30     conv2d_30 (Conv2D, DEPTHWISE_CONV_2D)                   [b:1,h:6,w:6,c:128]     1,280/1,664          41,600                     pad_29   |                              Conv2D_[37]            
       nl_30_nl (Nonlinearity, DEPTHWISE_CONV_2D)              [b:1,h:6,w:6,c:128]                           4,608                  conv2d_30   |          -4,608(-100.0%)     
------ ------------------------------------------------------- ----------------------- --------------- ----------- -------------------------- --- -------- ------------------- ---------------------- 
31     conv2d_31 (Conv2D, CONV_2D)                             [b:1,h:6,w:6,c:256]     33,024/33,792     1,179,904                   nl_30_nl   |                              Conv2D_[38]            
       nl_31_nl (Nonlinearity, CONV_2D)                        [b:1,h:6,w:6,c:256]                           9,216                  conv2d_31   |          -9,216(-100.0%)     
------ ------------------------------------------------------- ----------------------- --------------- ----------- -------------------------- --- -------- ------------------- ---------------------- 
32     conv2d_32 (Conv2D, DEPTHWISE_CONV_2D)                   [b:1,h:6,w:6,c:256]     2,560/3,328          83,200                   nl_31_nl   |                              Pad_/Conv2D_[39, 40]   
       nl_32_nl (Nonlinearity, DEPTHWISE_CONV_2D)              [b:1,h:6,w:6,c:256]                           9,216                  conv2d_32   |          -9,216(-100.0%)     
------ ------------------------------------------------------- ----------------------- --------------- ----------- -------------------------- --- -------- ------------------- ---------------------- 
33     conv2d_33 (Conv2D, CONV_2D)                             [b:1,h:6,w:6,c:256]     65,792/66,560     2,359,552                   nl_32_nl   |                              Conv2D_[41]            
       nl_33_nl (Nonlinearity, CONV_2D)                        [b:1,h:6,w:6,c:256]                           9,216                  conv2d_33   |          -9,216(-100.0%)     
------ ------------------------------------------------------- ----------------------- --------------- ----------- -------------------------- --- -------- ------------------- ---------------------- 
34     conv2d_34 (Conv2D, CONV_2D)                             [b:1,h:6,w:6,c:32]      8,224/8,320         294,944                   nl_33_nl   |                              Conv2D_[63]            
------ ------------------------------------------------------- ----------------------- --------------- ----------- -------------------------- --- -------- ------------------- ---------------------- 
35     conv2d_35 (Conv2D, DEPTHWISE_CONV_2D)                   [b:1,h:3,w:3,c:256]     2,560/3,328          20,992                   nl_33_nl   |                              Pad_/Conv2D_[42, 43]   
       nl_35_nl (Nonlinearity, DEPTHWISE_CONV_2D)              [b:1,h:3,w:3,c:256]                           2,304                  conv2d_35   |          -2,304(-100.0%)     
------ ------------------------------------------------------- ----------------------- --------------- ----------- -------------------------- --- -------- ------------------- ---------------------- 
36     conv2d_36 (Conv2D, CONV_2D)                             [b:1,h:3,w:3,c:256]     65,792/66,560       590,080                   nl_35_nl   |                              Conv2D_[44]            
       nl_36_nl (Nonlinearity, CONV_2D)                        [b:1,h:3,w:3,c:256]                           2,304                  conv2d_36   |          -2,304(-100.0%)     
------ ------------------------------------------------------- ----------------------- --------------- ----------- -------------------------- --- -------- ------------------- ---------------------- 
37     conv2d_37 (Conv2D, DEPTHWISE_CONV_2D)                   [b:1,h:3,w:3,c:256]     2,560/3,328          20,992                   nl_36_nl   |                              Pad_/Conv2D_[45, 46]   
       nl_37_nl (Nonlinearity, DEPTHWISE_CONV_2D)              [b:1,h:3,w:3,c:256]                           2,304                  conv2d_37   |          -2,304(-100.0%)     
------ ------------------------------------------------------- ----------------------- --------------- ----------- -------------------------- --- -------- ------------------- ---------------------- 
38     conv2d_38 (Conv2D, CONV_2D)                             [b:1,h:3,w:3,c:256]     65,792/66,560       590,080                   nl_37_nl   |                              Conv2D_[47]            
       nl_38_nl (Nonlinearity, CONV_2D)                        [b:1,h:3,w:3,c:256]                           2,304                  conv2d_38   |          -2,304(-100.0%)     
------ ------------------------------------------------------- ----------------------- --------------- ----------- -------------------------- --- -------- ------------------- ---------------------- 
39     conv2d_39 (Conv2D, CONV_2D)                             [b:1,h:3,w:3,c:32]      8,224/8,320          73,760                   nl_38_nl   |                              Conv2D_[56]            
------ ------------------------------------------------------- ----------------------- --------------- ----------- -------------------------- --- -------- ------------------- ---------------------- 
40     pool_40 (Pool, MEAN)                                    [b:1,h:1,w:1,c:256]                           2,304                   nl_38_nl   |                              Pool_[48]              
       reshape_40_reshape (Reshape, MEAN)                      [b:1,c:256]                                                            pool_40   |                              
------ ------------------------------------------------------- ----------------------- --------------- ----------- -------------------------- --- -------- ------------------- ---------------------- 
44     reshape_44 (Reshape, RESHAPE)                           [b:1,h:1,w:1,c:256]                                         reshape_40_reshape   |                              
------ ------------------------------------------------------- ----------------------- --------------- ----------- -------------------------- --- -------- ------------------- ---------------------- 
45     conv2d_45 (Conv2D, CONV_2D)                             [b:1,h:1,w:1,c:32]      8,224/8,320           8,224                 reshape_44   |                              Conv2D_[49]            
------ ------------------------------------------------------- ----------------------- --------------- ----------- -------------------------- --- -------- ------------------- ---------------------- 
46     conv2d_46 (Conv2D, CONV_2D)                             [b:1,h:1,w:1,c:10]      2,890/2,920           2,890                  conv2d_45   |                              Pad_/Conv2D_[50, 51]   
------ ------------------------------------------------------- ----------------------- --------------- ----------- -------------------------- --- -------- ------------------- ---------------------- 
50     reshape_50 (Reshape, RESHAPE)                           [b:1,h:5,c:2]                                                        conv2d_46   |                              
------ ------------------------------------------------------- ----------------------- --------------- ----------- -------------------------- --- -------- ------------------- ---------------------- 
51     conv2d_51 (Conv2D, CONV_2D)                             [b:1,h:1,w:1,c:20]      5,780/5,840           5,780                  conv2d_45   |                              Pad_/Conv2D_[52, 53]   
------ ------------------------------------------------------- ----------------------- --------------- ----------- -------------------------- --- -------- ------------------- ---------------------- 
55     reshape_55 (Reshape, RESHAPE)                           [b:1,h:5,c:4]                                                        conv2d_51   |                              
------ ------------------------------------------------------- ----------------------- --------------- ----------- -------------------------- --- -------- ------------------- ---------------------- 
62     tile_62 (Tile, RESIZE_BILINEAR)                         [b:1,h:2,w:2,c:32]                                                   conv2d_45   |                              Tile_[54]              
------ ------------------------------------------------------- ----------------------- --------------- ----------- -------------------------- --- -------- ------------------- ---------------------- 
63     pad_63 (Pad, PAD)                                       [b:1,h:3,w:3,c:32]                                                     tile_62   |                              Pad_[55]               
------ ------------------------------------------------------- ----------------------- --------------- ----------- -------------------------- --- -------- ------------------- ---------------------- 
64     eltwise_64 (Eltwise, ADD)                               [b:1,h:3,w:3,c:32]                              288                  conv2d_39   |                              Eltwise/add_[57]       
                                                                                                                                       pad_63   | 
------ ------------------------------------------------------- ----------------------- --------------- ----------- -------------------------- --- -------- ------------------- ---------------------- 
65     conv2d_65 (Conv2D, CONV_2D)                             [b:1,h:3,w:3,c:20]      5,780/5,840          51,860                 eltwise_64   |                              Pad_/Conv2D_[58, 59]   
------ ------------------------------------------------------- ----------------------- --------------- ----------- -------------------------- --- -------- ------------------- ---------------------- 
69     reshape_69 (Reshape, RESHAPE)                           [b:1,h:45,c:4]                                                       conv2d_65   |                              
------ ------------------------------------------------------- ----------------------- --------------- ----------- -------------------------- --- -------- ------------------- ---------------------- 
76     conv2d_76 (Conv2D, CONV_2D)                             [b:1,h:3,w:3,c:10]      2,890/2,920          25,930                 eltwise_64   |                              Pad_/Conv2D_[60, 61]   
------ ------------------------------------------------------- ----------------------- --------------- ----------- -------------------------- --- -------- ------------------- ---------------------- 
80     reshape_80 (Reshape, RESHAPE)                           [b:1,h:45,c:2]                                                       conv2d_76   |                              
------ ------------------------------------------------------- ----------------------- --------------- ----------- -------------------------- --- -------- ------------------- ---------------------- 
81     resize_81 (Resize, RESIZE_BILINEAR)                     [b:1,h:6,w:6,c:32]                            4,608                 eltwise_64   |                              Resize_[62]            
------ ------------------------------------------------------- ----------------------- --------------- ----------- -------------------------- --- -------- ------------------- ---------------------- 
82     eltwise_82 (Eltwise, ADD)                               [b:1,h:6,w:6,c:32]                            1,152                  conv2d_34   |                              Eltwise/add_[64]       
                                                                                                                                    resize_81   | 
------ ------------------------------------------------------- ----------------------- --------------- ----------- -------------------------- --- -------- ------------------- ---------------------- 
83     conv2d_83 (Conv2D, CONV_2D)                             [b:1,h:6,w:6,c:10]      2,890/2,920         103,690                 eltwise_82   |                              Pad_/Conv2D_[65, 66]   
------ ------------------------------------------------------- ----------------------- --------------- ----------- -------------------------- --- -------- ------------------- ---------------------- 
87     reshape_87 (Reshape, RESHAPE)                           [b:1,h:180,c:2]                                                      conv2d_83   |                              
------ ------------------------------------------------------- ----------------------- --------------- ----------- -------------------------- --- -------- ------------------- ---------------------- 
88     conv2d_88 (Conv2D, CONV_2D)                             [b:1,h:6,w:6,c:20]      5,780/5,840         207,380                 eltwise_82   |                              Pad_/Conv2D_[67, 68]   
------ ------------------------------------------------------- ----------------------- --------------- ----------- -------------------------- --- -------- ------------------- ---------------------- 
92     reshape_92 (Reshape, RESHAPE)                           [b:1,h:180,c:4]                                                      conv2d_88   |                              
------ ------------------------------------------------------- ----------------------- --------------- ----------- -------------------------- --- -------- ------------------- ---------------------- 
99     resize_99 (Resize, RESIZE_BILINEAR)                     [b:1,h:12,w:12,c:32]                         18,432                 eltwise_82   |                              Resize_[69]            
------ ------------------------------------------------------- ----------------------- --------------- ----------- -------------------------- --- -------- ------------------- ---------------------- 
100    eltwise_100 (Eltwise, ADD)                              [b:1,h:12,w:12,c:32]                          4,608                  conv2d_28   |                              Eltwise/add_[71]       
                                                                                                                                    resize_99   | 
------ ------------------------------------------------------- ----------------------- --------------- ----------- -------------------------- --- -------- ------------------- ---------------------- 
101    conv2d_101 (Conv2D, CONV_2D)                            [b:1,h:12,w:12,c:10]    2,890/2,920         414,730                eltwise_100   |                              Pad_/Conv2D_[72, 73]   
------ ------------------------------------------------------- ----------------------- --------------- ----------- -------------------------- --- -------- ------------------- ---------------------- 
105    reshape_105 (Reshape, RESHAPE)                          [b:1,h:720,c:2]                                                     conv2d_101   |                              
------ ------------------------------------------------------- ----------------------- --------------- ----------- -------------------------- --- -------- ------------------- ---------------------- 
106    conv2d_106 (Conv2D, CONV_2D)                            [b:1,h:12,w:12,c:20]    5,780/5,840         829,460                eltwise_100   |                              Pad_/Conv2D_[74, 75]   
------ ------------------------------------------------------- ----------------------- --------------- ----------- -------------------------- --- -------- ------------------- ---------------------- 
110    reshape_110 (Reshape, RESHAPE)                          [b:1,h:720,c:4]                                                     conv2d_106   |                              
------ ------------------------------------------------------- ----------------------- --------------- ----------- -------------------------- --- -------- ------------------- ---------------------- 
117    resize_117 (Resize, RESIZE_BILINEAR)                    [b:1,h:24,w:24,c:32]                         73,728                eltwise_100   |                              Resize_[76]            
------ ------------------------------------------------------- ----------------------- --------------- ----------- -------------------------- --- -------- ------------------- ---------------------- 
118    eltwise_118 (Eltwise, ADD)                              [b:1,h:24,w:24,c:32]                         18,432                  conv2d_14   |                              Eltwise/add_[78]       
                                                                                                                                   resize_117   | 
------ ------------------------------------------------------- ----------------------- --------------- ----------- -------------------------- --- -------- ------------------- ---------------------- 
119    conv2d_119 (Conv2D, CONV_2D)                            [b:1,h:24,w:24,c:10]    2,890/2,920       1,658,890                eltwise_118   |                              Pad_/Conv2D_[79, 80]   
------ ------------------------------------------------------- ----------------------- --------------- ----------- -------------------------- --- -------- ------------------- ---------------------- 
123    reshape_123 (Reshape, RESHAPE)                          [b:1,h:2880,c:2]                                                    conv2d_119   |                              
------ ------------------------------------------------------- ----------------------- --------------- ----------- -------------------------- --- -------- ------------------- ---------------------- 
124    concat_124 (Concat, CONCATENATION)                      [b:1,h:3830,c:2]                                                   reshape_123   |                              Concat_[81]            
                                                                                                                                  reshape_105   | 
                                                                                                                                   reshape_87   | 
                                                                                                                                   reshape_80   | 
                                                                                                                                   reshape_50   | 
------ ------------------------------------------------------- ----------------------- --------------- ----------- -------------------------- --- -------- ------------------- ---------------------- 
125    nl_125 (Nonlinearity, SOFTMAX)                          [b:1,h:3830,c:2]                            114,900                 concat_124   |                              Nonlinearity_[82]      
------ ------------------------------------------------------- ----------------------- --------------- ----------- -------------------------- --- -------- ------------------- ---------------------- 
126    conversion_126 (Conversion, DEQUANTIZE)                 [b:1,h:3830,c:2]                             15,320                     nl_125   |                              Conversion_[o][83]     
------ ------------------------------------------------------- ----------------------- --------------- ----------- -------------------------- --- -------- ------------------- ---------------------- 
127    conv2d_127 (Conv2D, CONV_2D)                            [b:1,h:24,w:24,c:20]    5,780/5,840       3,317,780                eltwise_118   |                              Pad_/Conv2D_[84, 85]   
------ ------------------------------------------------------- ----------------------- --------------- ----------- -------------------------- --- -------- ------------------- ---------------------- 
131    reshape_131 (Reshape, RESHAPE)                          [b:1,h:2880,c:4]                                                    conv2d_127   |                              
------ ------------------------------------------------------- ----------------------- --------------- ----------- -------------------------- --- -------- ------------------- ---------------------- 
132    concat_132 (Concat, CONCATENATION)                      [b:1,h:3830,c:4]                                                   reshape_131   |                              Concat_[86]            
                                                                                                                                  reshape_110   | 
                                                                                                                                   reshape_92   | 
                                                                                                                                   reshape_69   | 
                                                                                                                                   reshape_55   | 
------ ------------------------------------------------------- ----------------------- --------------- ----------- -------------------------- --- -------- ------------------- ---------------------- 
133    conversion_133 (Conversion, DEQUANTIZE)                 [b:1,h:3830,c:4]                             30,640                 concat_132   |                              Conversion_[o][87]     
------ ------------------------------------------------------- ----------------------- --------------- ----------- -------------------------- --- -------- ------------------- ---------------------- 
141    conversion_141_const (Placeholder, DEQUANTIZE)          [b:1,h:3830,c:4]        15,320/61,280                                            |                              Concat_[o][0]          
       conversion_141_const_to_output (Identity, DEQUANTIZE)   [b:1,h:3830,c:4]                                          conversion_141_const   |                              
------ ------------------------------------------------------- ----------------------- --------------- ----------- -------------------------- --- -------- ------------------- ---------------------- 
model/c-model: macc=41,387,362/40,451,938 -935,424(-2.3%) weights=494,760/494,760  activations=--/246,256 io=--/0



Generated C-graph summary
------------------------------------------------------------------------------------------------------------------------
model name            : st_ssd_mobilenet_v1_025_192_int8
c-name                : network
c-node #              : 88
c-array #             : 229
activations size      : 246256 (1 segment)
weights size          : 494760 (1 segment)
macc                  : 40451938
inputs                : ['serving_default_input_10_output']
outputs               : ['conversion_126_output', 'conversion_133_output', 'conversion_141_const_output_output']

C-Arrays (229)
------ ------------------------------------ --------------- ------------------------- ------------- --------- 
c_id   name (*_array)                       item/size       domain/mem-pool           c-type        comment   
------ ------------------------------------ --------------- ------------------------- ------------- --------- 
0      concat_124_output                    7660/7660       activations/**default**   s8                      
1      concat_132_output                    15320/15320     activations/**default**   s8                      
2      conv2d_101_bias                      10/40           weights/weights           const s32               
3      conv2d_101_output                    1440/1440       activations/**default**   s8                      
4      conv2d_101_pad_before_output         6272/6272       activations/**default**   s8                      
5      conv2d_101_scratch0                  6412/6412       activations/**default**   s8                      
6      conv2d_101_weights                   2880/2880       weights/weights           const s8                
7      conv2d_106_bias                      20/80           weights/weights           const s32               
8      conv2d_106_output                    2880/2880       activations/**default**   s8                      
9      conv2d_106_pad_before_output         6272/6272       activations/**default**   s8                      
10     conv2d_106_scratch0                  6552/6552       activations/**default**   s8                      
11     conv2d_106_weights                   5760/5760       weights/weights           const s8                
12     conv2d_10_bias                       32/128          weights/weights           const s32               
13     conv2d_10_output                     18432/18432     activations/**default**   s8                      
14     conv2d_10_pad_before_output          76832/76832     activations/**default**   s8                      
15     conv2d_10_scratch0                   1185/1185       activations/**default**   s8                      
16     conv2d_10_weights                    288/288         weights/weights           const s8                
17     conv2d_119_bias                      10/40           weights/weights           const s32               
18     conv2d_119_output                    5760/5760       activations/**default**   s8                      
19     conv2d_119_pad_before_output         21632/21632     activations/**default**   s8                      
20     conv2d_119_scratch0                  6412/6412       activations/**default**   s8                      
21     conv2d_119_weights                   2880/2880       weights/weights           const s8                
22     conv2d_11_bias                       64/256          weights/weights           const s32               
23     conv2d_11_output                     36864/36864     activations/**default**   s8                      
24     conv2d_11_scratch0                   768/768         activations/**default**   s8                      
25     conv2d_11_weights                    2048/2048       weights/weights           const s8                
26     conv2d_127_bias                      20/80           weights/weights           const s32               
27     conv2d_127_output                    11520/11520     activations/**default**   s8                      
28     conv2d_127_pad_before_output         21632/21632     activations/**default**   s8                      
29     conv2d_127_scratch0                  6552/6552       activations/**default**   s8                      
30     conv2d_127_weights                   5760/5760       weights/weights           const s8                
31     conv2d_12_bias                       64/256          weights/weights           const s32               
32     conv2d_12_output                     36864/36864     activations/**default**   s8                      
33     conv2d_12_pad_before_output          43264/43264     activations/**default**   s8                      
34     conv2d_12_scratch0                   2369/2369       activations/**default**   s8                      
35     conv2d_12_weights                    576/576         weights/weights           const s8                
36     conv2d_13_bias                       64/256          weights/weights           const s32               
37     conv2d_13_output                     36864/36864     activations/**default**   s8                      
38     conv2d_13_scratch0                   896/896         activations/**default**   s8                      
39     conv2d_13_weights                    4096/4096       weights/weights           const s8                
40     conv2d_14_bias                       32/128          weights/weights           const s32               
41     conv2d_14_output                     18432/18432     activations/**default**   s8                      
42     conv2d_14_scratch0                   576/576         activations/**default**   s8                      
43     conv2d_14_weights                    2048/2048       weights/weights           const s8                
44     conv2d_16_bias                       64/256          weights/weights           const s32               
45     conv2d_16_output                     9216/9216       activations/**default**   s8                      
46     conv2d_16_pad_before_output          40000/40000     activations/**default**   s8                      
47     conv2d_16_scratch0                   2369/2369       activations/**default**   s8                      
48     conv2d_16_weights                    576/576         weights/weights           const s8                
49     conv2d_17_bias                       128/512         weights/weights           const s32               
50     conv2d_17_output                     18432/18432     activations/**default**   s8                      
51     conv2d_17_scratch0                   1536/1536       activations/**default**   s8                      
52     conv2d_17_weights                    8192/8192       weights/weights           const s8                
53     conv2d_18_bias                       128/512         weights/weights           const s32               
54     conv2d_18_output                     18432/18432     activations/**default**   s8                      
55     conv2d_18_pad_before_output          25088/25088     activations/**default**   s8                      
56     conv2d_18_scratch0                   4737/4737       activations/**default**   s8                      
57     conv2d_18_weights                    1152/1152       weights/weights           const s8                
58     conv2d_19_bias                       128/512         weights/weights           const s32               
59     conv2d_19_output                     18432/18432     activations/**default**   s8                      
60     conv2d_19_scratch0                   1792/1792       activations/**default**   s8                      
61     conv2d_19_weights                    16384/16384     weights/weights           const s8                
62     conv2d_1_bias                        8/32            weights/weights           const s32               
63     conv2d_1_output                      73728/73728     activations/**default**   s8                      
64     conv2d_1_scratch0                    652/652         activations/**default**   s8                      
65     conv2d_1_weights                     216/216         weights/weights           const s8                
66     conv2d_20_bias                       128/512         weights/weights           const s32               
67     conv2d_20_output                     18432/18432     activations/**default**   s8                      
68     conv2d_20_pad_before_output          25088/25088     activations/**default**   s8                      
69     conv2d_20_scratch0                   4737/4737       activations/**default**   s8                      
70     conv2d_20_weights                    1152/1152       weights/weights           const s8                
71     conv2d_21_bias                       128/512         weights/weights           const s32               
72     conv2d_21_output                     18432/18432     activations/**default**   s8                      
73     conv2d_21_scratch0                   1792/1792       activations/**default**   s8                      
74     conv2d_21_weights                    16384/16384     weights/weights           const s8                
75     conv2d_22_bias                       128/512         weights/weights           const s32               
76     conv2d_22_output                     18432/18432     activations/**default**   s8                      
77     conv2d_22_pad_before_output          25088/25088     activations/**default**   s8                      
78     conv2d_22_scratch0                   4737/4737       activations/**default**   s8                      
79     conv2d_22_weights                    1152/1152       weights/weights           const s8                
80     conv2d_23_bias                       128/512         weights/weights           const s32               
81     conv2d_23_output                     18432/18432     activations/**default**   s8                      
82     conv2d_23_scratch0                   1792/1792       activations/**default**   s8                      
83     conv2d_23_weights                    16384/16384     weights/weights           const s8                
84     conv2d_24_bias                       128/512         weights/weights           const s32               
85     conv2d_24_output                     18432/18432     activations/**default**   s8                      
86     conv2d_24_pad_before_output          25088/25088     activations/**default**   s8                      
87     conv2d_24_scratch0                   4737/4737       activations/**default**   s8                      
88     conv2d_24_weights                    1152/1152       weights/weights           const s8                
89     conv2d_25_bias                       128/512         weights/weights           const s32               
90     conv2d_25_output                     18432/18432     activations/**default**   s8                      
91     conv2d_25_scratch0                   1792/1792       activations/**default**   s8                      
92     conv2d_25_weights                    16384/16384     weights/weights           const s8                
93     conv2d_26_bias                       128/512         weights/weights           const s32               
94     conv2d_26_output                     18432/18432     activations/**default**   s8                      
95     conv2d_26_pad_before_output          25088/25088     activations/**default**   s8                      
96     conv2d_26_scratch0                   4737/4737       activations/**default**   s8                      
97     conv2d_26_weights                    1152/1152       weights/weights           const s8                
98     conv2d_27_bias                       128/512         weights/weights           const s32               
99     conv2d_27_output                     18432/18432     activations/**default**   s8                      
100    conv2d_27_scratch0                   1792/1792       activations/**default**   s8                      
101    conv2d_27_weights                    16384/16384     weights/weights           const s8                
102    conv2d_28_bias                       32/128          weights/weights           const s32               
103    conv2d_28_output                     4608/4608       activations/**default**   s8                      
104    conv2d_28_scratch0                   832/832         activations/**default**   s8                      
105    conv2d_28_weights                    4096/4096       weights/weights           const s8                
106    conv2d_2_bias                        8/32            weights/weights           const s32               
107    conv2d_2_output                      73728/73728     activations/**default**   s8                      
108    conv2d_2_pad_before_output           76832/76832     activations/**default**   s8                      
109    conv2d_2_scratch0                    297/297         activations/**default**   s8                      
110    conv2d_2_weights                     72/72           weights/weights           const s8                
111    conv2d_30_bias                       128/512         weights/weights           const s32               
112    conv2d_30_output                     4608/4608       activations/**default**   s8                      
113    conv2d_30_pad_before_output          21632/21632     activations/**default**   s8                      
114    conv2d_30_scratch0                   4737/4737       activations/**default**   s8                      
115    conv2d_30_weights                    1152/1152       weights/weights           const s8                
116    conv2d_31_bias                       256/1024        weights/weights           const s32               
117    conv2d_31_output                     9216/9216       activations/**default**   s8                      
118    conv2d_31_scratch0                   3072/3072       activations/**default**   s8                      
119    conv2d_31_weights                    32768/32768     weights/weights           const s8                
120    conv2d_32_bias                       256/1024        weights/weights           const s32               
121    conv2d_32_output                     9216/9216       activations/**default**   s8                      
122    conv2d_32_pad_before_output          16384/16384     activations/**default**   s8                      
123    conv2d_32_scratch0                   9473/9473       activations/**default**   s8                      
124    conv2d_32_weights                    2304/2304       weights/weights           const s8                
125    conv2d_33_bias                       256/1024        weights/weights           const s32               
126    conv2d_33_output                     9216/9216       activations/**default**   s8                      
127    conv2d_33_scratch0                   3584/3584       activations/**default**   s8                      
128    conv2d_33_weights                    65536/65536     weights/weights           const s8                
129    conv2d_34_bias                       32/128          weights/weights           const s32               
130    conv2d_34_output                     1152/1152       activations/**default**   s8                      
131    conv2d_34_scratch0                   1344/1344       activations/**default**   s8                      
132    conv2d_34_weights                    8192/8192       weights/weights           const s8                
133    conv2d_35_bias                       256/1024        weights/weights           const s32               
134    conv2d_35_output                     2304/2304       activations/**default**   s8                      
135    conv2d_35_pad_before_output          16384/16384     activations/**default**   s8                      
136    conv2d_35_scratch0                   9473/9473       activations/**default**   s8                      
137    conv2d_35_weights                    2304/2304       weights/weights           const s8                
138    conv2d_36_bias                       256/1024        weights/weights           const s32               
139    conv2d_36_output                     2304/2304       activations/**default**   s8                      
140    conv2d_36_scratch0                   3584/3584       activations/**default**   s8                      
141    conv2d_36_weights                    65536/65536     weights/weights           const s8                
142    conv2d_37_bias                       256/1024        weights/weights           const s32               
143    conv2d_37_output                     2304/2304       activations/**default**   s8                      
144    conv2d_37_pad_before_output          6400/6400       activations/**default**   s8                      
145    conv2d_37_scratch0                   9473/9473       activations/**default**   s8                      
146    conv2d_37_weights                    2304/2304       weights/weights           const s8                
147    conv2d_38_bias                       256/1024        weights/weights           const s32               
148    conv2d_38_output                     2304/2304       activations/**default**   s8                      
149    conv2d_38_scratch0                   3584/3584       activations/**default**   s8                      
150    conv2d_38_weights                    65536/65536     weights/weights           const s8                
151    conv2d_39_bias                       32/128          weights/weights           const s32               
152    conv2d_39_output                     288/288         activations/**default**   s8                      
153    conv2d_39_scratch0                   1344/1344       activations/**default**   s8                      
154    conv2d_39_weights                    8192/8192       weights/weights           const s8                
155    conv2d_3_bias                        16/64           weights/weights           const s32               
156    conv2d_3_output                      147456/147456   activations/**default**   s8                      
157    conv2d_3_scratch0                    192/192         activations/**default**   s8                      
158    conv2d_3_weights                     128/128         weights/weights           const s8                
159    conv2d_45_bias                       32/128          weights/weights           const s32               
160    conv2d_45_output                     32/32           activations/**default**   s8                      
161    conv2d_45_scratch0                   1344/1344       activations/**default**   s8                      
162    conv2d_45_weights                    8192/8192       weights/weights           const s8                
163    conv2d_46_bias                       10/40           weights/weights           const s32               
164    conv2d_46_output                     10/10           activations/**default**   s8                      
165    conv2d_46_pad_before_output          288/288         activations/**default**   s8                      
166    conv2d_46_scratch0                   6412/6412       activations/**default**   s8                      
167    conv2d_46_weights                    2880/2880       weights/weights           const s8                
168    conv2d_51_bias                       20/80           weights/weights           const s32               
169    conv2d_51_output                     20/20           activations/**default**   s8                      
170    conv2d_51_pad_before_output          288/288         activations/**default**   s8                      
171    conv2d_51_scratch0                   6552/6552       activations/**default**   s8                      
172    conv2d_51_weights                    5760/5760       weights/weights           const s8                
173    conv2d_5_bias                        16/64           weights/weights           const s32               
174    conv2d_5_output                      36864/36864     activations/**default**   s8                      
175    conv2d_5_pad_before_output           150544/150544   activations/**default**   s8                      
176    conv2d_5_scratch0                    593/593         activations/**default**   s8                      
177    conv2d_5_weights                     144/144         weights/weights           const s8                
178    conv2d_65_bias                       20/80           weights/weights           const s32               
179    conv2d_65_output                     180/180         activations/**default**   s8                      
180    conv2d_65_pad_before_output          800/800         activations/**default**   s8                      
181    conv2d_65_scratch0                   6552/6552       activations/**default**   s8                      
182    conv2d_65_weights                    5760/5760       weights/weights           const s8                
183    conv2d_6_bias                        32/128          weights/weights           const s32               
184    conv2d_6_output                      73728/73728     activations/**default**   s8                      
185    conv2d_6_scratch0                    384/384         activations/**default**   s8                      
186    conv2d_6_weights                     512/512         weights/weights           const s8                
187    conv2d_76_bias                       10/40           weights/weights           const s32               
188    conv2d_76_output                     90/90           activations/**default**   s8                      
189    conv2d_76_pad_before_output          800/800         activations/**default**   s8                      
190    conv2d_76_scratch0                   6412/6412       activations/**default**   s8                      
191    conv2d_76_weights                    2880/2880       weights/weights           const s8                
192    conv2d_7_bias                        32/128          weights/weights           const s32               
193    conv2d_7_output                      73728/73728     activations/**default**   s8                      
194    conv2d_7_pad_before_output           80000/80000     activations/**default**   s8                      
195    conv2d_7_scratch0                    1185/1185       activations/**default**   s8                      
196    conv2d_7_weights                     288/288         weights/weights           const s8                
197    conv2d_83_bias                       10/40           weights/weights           const s32               
198    conv2d_83_output                     360/360         activations/**default**   s8                      
199    conv2d_83_pad_before_output          2048/2048       activations/**default**   s8                      
200    conv2d_83_scratch0                   6412/6412       activations/**default**   s8                      
201    conv2d_83_weights                    2880/2880       weights/weights           const s8                
202    conv2d_88_bias                       20/80           weights/weights           const s32               
203    conv2d_88_output                     720/720         activations/**default**   s8                      
204    conv2d_88_pad_before_output          2048/2048       activations/**default**   s8                      
205    conv2d_88_scratch0                   6552/6552       activations/**default**   s8                      
206    conv2d_88_weights                    5760/5760       weights/weights           const s8                
207    conv2d_8_bias                        32/128          weights/weights           const s32               
208    conv2d_8_output                      73728/73728     activations/**default**   s8                      
209    conv2d_8_scratch0                    448/448         activations/**default**   s8                      
210    conv2d_8_weights                     1024/1024       weights/weights           const s8                
211    conversion_0_output                  110592/110593   activations/**default**   s8                      
212    conversion_126_output                7660/30640      activations/**default**   float         /output   
213    conversion_133_output                15320/61280     activations/**default**   float         /output   
214    conversion_141_const                 15320/61280     weights/weights           const float             
215    conversion_141_const_output_output   15320/61280     activations/**default**   float         /output   
216    eltwise_100_output                   4608/4608       activations/**default**   s8                      
217    eltwise_118_output                   18432/18432     activations/**default**   s8                      
218    eltwise_64_output                    288/288         activations/**default**   s8                      
219    eltwise_82_output                    1152/1152       activations/**default**   s8                      
220    nl_125_output                        7660/7660       activations/**default**   s8                      
221    nl_125_scratch0                      248/992         activations/**default**   s32                     
222    pad_63_output                        288/288         activations/**default**   s8                      
223    pool_40_output                       256/256         activations/**default**   s8                      
224    resize_117_output                    18432/18432     activations/**default**   s8                      
225    resize_81_output                     1152/1152       activations/**default**   s8                      
226    resize_99_output                     4608/4608       activations/**default**   s8                      
227    serving_default_input_10_output      110592/110592   activations/**default**   u8            /input    
228    tile_62_output                       128/128         activations/**default**   s8                      
------ ------------------------------------ --------------- ------------------------- ------------- --------- 

C-Layers (88)
------ ----------------------- ----- --------------- --------- ------- ------------------------------------ -------------------------- 
c_id   name (*_layer)          id    layer_type      macc      rom     tensors                              shape (array id)           
------ ----------------------- ----- --------------- --------- ------- ------------------------------------ -------------------------- 
1      conversion_0            0     Conversion      221184    0       I: serving_default_input_10_output   uint8(1x192x192x3) (227)   
                                                                       O: conversion_0_output               int8(1x192x192x3) (211)    
------ ----------------------- ----- --------------- --------- ------- ------------------------------------ -------------------------- 
2      conv2d_1                1     Conv2D          1990664   248     I: conversion_0_output               int8(1x192x192x3) (211)    
                                                                       S: conv2d_1_scratch0                                            
                                                                       W: conv2d_1_weights                  int8(8x3x3x3) (65)         
                                                                       W: conv2d_1_bias                     int32(8) (62)              
                                                                       O: conv2d_1_output                   int8(1x96x96x8) (63)       
------ ----------------------- ----- --------------- --------- ------- ------------------------------------ -------------------------- 
3      conv2d_2_pad_before     2     Pad             0         0       I: conv2d_1_output                   int8(1x96x96x8) (63)       
                                                                       O: conv2d_2_pad_before_output        int8(1x98x98x8) (108)      
------ ----------------------- ----- --------------- --------- ------- ------------------------------------ -------------------------- 
4      conv2d_2                2     Conv2D          663560    104     I: conv2d_2_pad_before_output        int8(1x98x98x8) (108)      
                                                                       S: conv2d_2_scratch0                                            
                                                                       W: conv2d_2_weights                  int8(1x3x3x8) (110)        
                                                                       W: conv2d_2_bias                     int32(8) (106)             
                                                                       O: conv2d_2_output                   int8(1x96x96x8) (107)      
------ ----------------------- ----- --------------- --------- ------- ------------------------------------ -------------------------- 
5      conv2d_3                3     Conv2D          1179664   192     I: conv2d_2_output                   int8(1x96x96x8) (107)      
                                                                       S: conv2d_3_scratch0                                            
                                                                       W: conv2d_3_weights                  int8(16x1x1x8) (158)       
                                                                       W: conv2d_3_bias                     int32(16) (155)            
                                                                       O: conv2d_3_output                   int8(1x96x96x16) (156)     
------ ----------------------- ----- --------------- --------- ------- ------------------------------------ -------------------------- 
6      conv2d_5_pad_before     4     Pad             0         0       I: conv2d_3_output                   int8(1x96x96x16) (156)     
                                                                       O: conv2d_5_pad_before_output        int8(1x97x97x16) (175)     
------ ----------------------- ----- --------------- --------- ------- ------------------------------------ -------------------------- 
7      conv2d_5                5     Conv2D          331792    208     I: conv2d_5_pad_before_output        int8(1x97x97x16) (175)     
                                                                       S: conv2d_5_scratch0                                            
                                                                       W: conv2d_5_weights                  int8(1x3x3x16) (177)       
                                                                       W: conv2d_5_bias                     int32(16) (173)            
                                                                       O: conv2d_5_output                   int8(1x48x48x16) (174)     
------ ----------------------- ----- --------------- --------- ------- ------------------------------------ -------------------------- 
8      conv2d_6                6     Conv2D          1179680   640     I: conv2d_5_output                   int8(1x48x48x16) (174)     
                                                                       S: conv2d_6_scratch0                                            
                                                                       W: conv2d_6_weights                  int8(32x1x1x16) (186)      
                                                                       W: conv2d_6_bias                     int32(32) (183)            
                                                                       O: conv2d_6_output                   int8(1x48x48x32) (184)     
------ ----------------------- ----- --------------- --------- ------- ------------------------------------ -------------------------- 
9      conv2d_7_pad_before     7     Pad             0         0       I: conv2d_6_output                   int8(1x48x48x32) (184)     
                                                                       O: conv2d_7_pad_before_output        int8(1x50x50x32) (194)     
------ ----------------------- ----- --------------- --------- ------- ------------------------------------ -------------------------- 
10     conv2d_7                7     Conv2D          663584    416     I: conv2d_7_pad_before_output        int8(1x50x50x32) (194)     
                                                                       S: conv2d_7_scratch0                                            
                                                                       W: conv2d_7_weights                  int8(1x3x3x32) (196)       
                                                                       W: conv2d_7_bias                     int32(32) (192)            
                                                                       O: conv2d_7_output                   int8(1x48x48x32) (193)     
------ ----------------------- ----- --------------- --------- ------- ------------------------------------ -------------------------- 
11     conv2d_8                8     Conv2D          2359328   1152    I: conv2d_7_output                   int8(1x48x48x32) (193)     
                                                                       S: conv2d_8_scratch0                                            
                                                                       W: conv2d_8_weights                  int8(32x1x1x32) (210)      
                                                                       W: conv2d_8_bias                     int32(32) (207)            
                                                                       O: conv2d_8_output                   int8(1x48x48x32) (208)     
------ ----------------------- ----- --------------- --------- ------- ------------------------------------ -------------------------- 
12     conv2d_10_pad_before    9     Pad             0         0       I: conv2d_8_output                   int8(1x48x48x32) (208)     
                                                                       O: conv2d_10_pad_before_output       int8(1x49x49x32) (14)      
------ ----------------------- ----- --------------- --------- ------- ------------------------------------ -------------------------- 
13     conv2d_10               10    Conv2D          165920    416     I: conv2d_10_pad_before_output       int8(1x49x49x32) (14)      
                                                                       S: conv2d_10_scratch0                                           
                                                                       W: conv2d_10_weights                 int8(1x3x3x32) (16)        
                                                                       W: conv2d_10_bias                    int32(32) (12)             
                                                                       O: conv2d_10_output                  int8(1x24x24x32) (13)      
------ ----------------------- ----- --------------- --------- ------- ------------------------------------ -------------------------- 
14     conv2d_11               11    Conv2D          1179712   2304    I: conv2d_10_output                  int8(1x24x24x32) (13)      
                                                                       S: conv2d_11_scratch0                                           
                                                                       W: conv2d_11_weights                 int8(64x1x1x32) (25)       
                                                                       W: conv2d_11_bias                    int32(64) (22)             
                                                                       O: conv2d_11_output                  int8(1x24x24x64) (23)      
------ ----------------------- ----- --------------- --------- ------- ------------------------------------ -------------------------- 
15     conv2d_12_pad_before    12    Pad             0         0       I: conv2d_11_output                  int8(1x24x24x64) (23)      
                                                                       O: conv2d_12_pad_before_output       int8(1x26x26x64) (33)      
------ ----------------------- ----- --------------- --------- ------- ------------------------------------ -------------------------- 
16     conv2d_12               12    Conv2D          331840    832     I: conv2d_12_pad_before_output       int8(1x26x26x64) (33)      
                                                                       S: conv2d_12_scratch0                                           
                                                                       W: conv2d_12_weights                 int8(1x3x3x64) (35)        
                                                                       W: conv2d_12_bias                    int32(64) (31)             
                                                                       O: conv2d_12_output                  int8(1x24x24x64) (32)      
------ ----------------------- ----- --------------- --------- ------- ------------------------------------ -------------------------- 
17     conv2d_13               13    Conv2D          2359360   4352    I: conv2d_12_output                  int8(1x24x24x64) (32)      
                                                                       S: conv2d_13_scratch0                                           
                                                                       W: conv2d_13_weights                 int8(64x1x1x64) (39)       
                                                                       W: conv2d_13_bias                    int32(64) (36)             
                                                                       O: conv2d_13_output                  int8(1x24x24x64) (37)      
------ ----------------------- ----- --------------- --------- ------- ------------------------------------ -------------------------- 
18     conv2d_16_pad_before    15    Pad             0         0       I: conv2d_13_output                  int8(1x24x24x64) (37)      
                                                                       O: conv2d_16_pad_before_output       int8(1x25x25x64) (46)      
------ ----------------------- ----- --------------- --------- ------- ------------------------------------ -------------------------- 
19     conv2d_16               16    Conv2D          83008     832     I: conv2d_16_pad_before_output       int8(1x25x25x64) (46)      
                                                                       S: conv2d_16_scratch0                                           
                                                                       W: conv2d_16_weights                 int8(1x3x3x64) (48)        
                                                                       W: conv2d_16_bias                    int32(64) (44)             
                                                                       O: conv2d_16_output                  int8(1x12x12x64) (45)      
------ ----------------------- ----- --------------- --------- ------- ------------------------------------ -------------------------- 
20     conv2d_17               17    Conv2D          1179776   8704    I: conv2d_16_output                  int8(1x12x12x64) (45)      
                                                                       S: conv2d_17_scratch0                                           
                                                                       W: conv2d_17_weights                 int8(128x1x1x64) (52)      
                                                                       W: conv2d_17_bias                    int32(128) (49)            
                                                                       O: conv2d_17_output                  int8(1x12x12x128) (50)     
------ ----------------------- ----- --------------- --------- ------- ------------------------------------ -------------------------- 
21     conv2d_18_pad_before    18    Pad             0         0       I: conv2d_17_output                  int8(1x12x12x128) (50)     
                                                                       O: conv2d_18_pad_before_output       int8(1x14x14x128) (55)     
------ ----------------------- ----- --------------- --------- ------- ------------------------------------ -------------------------- 
22     conv2d_18               18    Conv2D          166016    1664    I: conv2d_18_pad_before_output       int8(1x14x14x128) (55)     
                                                                       S: conv2d_18_scratch0                                           
                                                                       W: conv2d_18_weights                 int8(1x3x3x128) (57)       
                                                                       W: conv2d_18_bias                    int32(128) (53)            
                                                                       O: conv2d_18_output                  int8(1x12x12x128) (54)     
------ ----------------------- ----- --------------- --------- ------- ------------------------------------ -------------------------- 
23     conv2d_19               19    Conv2D          2359424   16896   I: conv2d_18_output                  int8(1x12x12x128) (54)     
                                                                       S: conv2d_19_scratch0                                           
                                                                       W: conv2d_19_weights                 int8(128x1x1x128) (61)     
                                                                       W: conv2d_19_bias                    int32(128) (58)            
                                                                       O: conv2d_19_output                  int8(1x12x12x128) (59)     
------ ----------------------- ----- --------------- --------- ------- ------------------------------------ -------------------------- 
24     conv2d_20_pad_before    20    Pad             0         0       I: conv2d_19_output                  int8(1x12x12x128) (59)     
                                                                       O: conv2d_20_pad_before_output       int8(1x14x14x128) (68)     
------ ----------------------- ----- --------------- --------- ------- ------------------------------------ -------------------------- 
25     conv2d_20               20    Conv2D          166016    1664    I: conv2d_20_pad_before_output       int8(1x14x14x128) (68)     
                                                                       S: conv2d_20_scratch0                                           
                                                                       W: conv2d_20_weights                 int8(1x3x3x128) (70)       
                                                                       W: conv2d_20_bias                    int32(128) (66)            
                                                                       O: conv2d_20_output                  int8(1x12x12x128) (67)     
------ ----------------------- ----- --------------- --------- ------- ------------------------------------ -------------------------- 
26     conv2d_21               21    Conv2D          2359424   16896   I: conv2d_20_output                  int8(1x12x12x128) (67)     
                                                                       S: conv2d_21_scratch0                                           
                                                                       W: conv2d_21_weights                 int8(128x1x1x128) (74)     
                                                                       W: conv2d_21_bias                    int32(128) (71)            
                                                                       O: conv2d_21_output                  int8(1x12x12x128) (72)     
------ ----------------------- ----- --------------- --------- ------- ------------------------------------ -------------------------- 
27     conv2d_22_pad_before    22    Pad             0         0       I: conv2d_21_output                  int8(1x12x12x128) (72)     
                                                                       O: conv2d_22_pad_before_output       int8(1x14x14x128) (77)     
------ ----------------------- ----- --------------- --------- ------- ------------------------------------ -------------------------- 
28     conv2d_22               22    Conv2D          166016    1664    I: conv2d_22_pad_before_output       int8(1x14x14x128) (77)     
                                                                       S: conv2d_22_scratch0                                           
                                                                       W: conv2d_22_weights                 int8(1x3x3x128) (79)       
                                                                       W: conv2d_22_bias                    int32(128) (75)            
                                                                       O: conv2d_22_output                  int8(1x12x12x128) (76)     
------ ----------------------- ----- --------------- --------- ------- ------------------------------------ -------------------------- 
29     conv2d_23               23    Conv2D          2359424   16896   I: conv2d_22_output                  int8(1x12x12x128) (76)     
                                                                       S: conv2d_23_scratch0                                           
                                                                       W: conv2d_23_weights                 int8(128x1x1x128) (83)     
                                                                       W: conv2d_23_bias                    int32(128) (80)            
                                                                       O: conv2d_23_output                  int8(1x12x12x128) (81)     
------ ----------------------- ----- --------------- --------- ------- ------------------------------------ -------------------------- 
30     conv2d_24_pad_before    24    Pad             0         0       I: conv2d_23_output                  int8(1x12x12x128) (81)     
                                                                       O: conv2d_24_pad_before_output       int8(1x14x14x128) (86)     
------ ----------------------- ----- --------------- --------- ------- ------------------------------------ -------------------------- 
31     conv2d_24               24    Conv2D          166016    1664    I: conv2d_24_pad_before_output       int8(1x14x14x128) (86)     
                                                                       S: conv2d_24_scratch0                                           
                                                                       W: conv2d_24_weights                 int8(1x3x3x128) (88)       
                                                                       W: conv2d_24_bias                    int32(128) (84)            
                                                                       O: conv2d_24_output                  int8(1x12x12x128) (85)     
------ ----------------------- ----- --------------- --------- ------- ------------------------------------ -------------------------- 
32     conv2d_25               25    Conv2D          2359424   16896   I: conv2d_24_output                  int8(1x12x12x128) (85)     
                                                                       S: conv2d_25_scratch0                                           
                                                                       W: conv2d_25_weights                 int8(128x1x1x128) (92)     
                                                                       W: conv2d_25_bias                    int32(128) (89)            
                                                                       O: conv2d_25_output                  int8(1x12x12x128) (90)     
------ ----------------------- ----- --------------- --------- ------- ------------------------------------ -------------------------- 
33     conv2d_26_pad_before    26    Pad             0         0       I: conv2d_25_output                  int8(1x12x12x128) (90)     
                                                                       O: conv2d_26_pad_before_output       int8(1x14x14x128) (95)     
------ ----------------------- ----- --------------- --------- ------- ------------------------------------ -------------------------- 
34     conv2d_26               26    Conv2D          166016    1664    I: conv2d_26_pad_before_output       int8(1x14x14x128) (95)     
                                                                       S: conv2d_26_scratch0                                           
                                                                       W: conv2d_26_weights                 int8(1x3x3x128) (97)       
                                                                       W: conv2d_26_bias                    int32(128) (93)            
                                                                       O: conv2d_26_output                  int8(1x12x12x128) (94)     
------ ----------------------- ----- --------------- --------- ------- ------------------------------------ -------------------------- 
35     conv2d_27               27    Conv2D          2359424   16896   I: conv2d_26_output                  int8(1x12x12x128) (94)     
                                                                       S: conv2d_27_scratch0                                           
                                                                       W: conv2d_27_weights                 int8(128x1x1x128) (101)    
                                                                       W: conv2d_27_bias                    int32(128) (98)            
                                                                       O: conv2d_27_output                  int8(1x12x12x128) (99)     
------ ----------------------- ----- --------------- --------- ------- ------------------------------------ -------------------------- 
36     conv2d_30_pad_before    29    Pad             0         0       I: conv2d_27_output                  int8(1x12x12x128) (99)     
                                                                       O: conv2d_30_pad_before_output       int8(1x13x13x128) (113)    
------ ----------------------- ----- --------------- --------- ------- ------------------------------------ -------------------------- 
37     conv2d_30               30    Conv2D          41600     1664    I: conv2d_30_pad_before_output       int8(1x13x13x128) (113)    
                                                                       S: conv2d_30_scratch0                                           
                                                                       W: conv2d_30_weights                 int8(1x3x3x128) (115)      
                                                                       W: conv2d_30_bias                    int32(128) (111)           
                                                                       O: conv2d_30_output                  int8(1x6x6x128) (112)      
------ ----------------------- ----- --------------- --------- ------- ------------------------------------ -------------------------- 
38     conv2d_31               31    Conv2D          1179904   33792   I: conv2d_30_output                  int8(1x6x6x128) (112)      
                                                                       S: conv2d_31_scratch0                                           
                                                                       W: conv2d_31_weights                 int8(256x1x1x128) (119)    
                                                                       W: conv2d_31_bias                    int32(256) (116)           
                                                                       O: conv2d_31_output                  int8(1x6x6x256) (117)      
------ ----------------------- ----- --------------- --------- ------- ------------------------------------ -------------------------- 
39     conv2d_32_pad_before    32    Pad             0         0       I: conv2d_31_output                  int8(1x6x6x256) (117)      
                                                                       O: conv2d_32_pad_before_output       int8(1x8x8x256) (122)      
------ ----------------------- ----- --------------- --------- ------- ------------------------------------ -------------------------- 
40     conv2d_32               32    Conv2D          83200     3328    I: conv2d_32_pad_before_output       int8(1x8x8x256) (122)      
                                                                       S: conv2d_32_scratch0                                           
                                                                       W: conv2d_32_weights                 int8(1x3x3x256) (124)      
                                                                       W: conv2d_32_bias                    int32(256) (120)           
                                                                       O: conv2d_32_output                  int8(1x6x6x256) (121)      
------ ----------------------- ----- --------------- --------- ------- ------------------------------------ -------------------------- 
41     conv2d_33               33    Conv2D          2359552   66560   I: conv2d_32_output                  int8(1x6x6x256) (121)      
                                                                       S: conv2d_33_scratch0                                           
                                                                       W: conv2d_33_weights                 int8(256x1x1x256) (128)    
                                                                       W: conv2d_33_bias                    int32(256) (125)           
                                                                       O: conv2d_33_output                  int8(1x6x6x256) (126)      
------ ----------------------- ----- --------------- --------- ------- ------------------------------------ -------------------------- 
42     conv2d_35_pad_before    35    Pad             0         0       I: conv2d_33_output                  int8(1x6x6x256) (126)      
                                                                       O: conv2d_35_pad_before_output       int8(1x8x8x256) (135)      
------ ----------------------- ----- --------------- --------- ------- ------------------------------------ -------------------------- 
43     conv2d_35               35    Conv2D          20992     3328    I: conv2d_35_pad_before_output       int8(1x8x8x256) (135)      
                                                                       S: conv2d_35_scratch0                                           
                                                                       W: conv2d_35_weights                 int8(1x3x3x256) (137)      
                                                                       W: conv2d_35_bias                    int32(256) (133)           
                                                                       O: conv2d_35_output                  int8(1x3x3x256) (134)      
------ ----------------------- ----- --------------- --------- ------- ------------------------------------ -------------------------- 
44     conv2d_36               36    Conv2D          590080    66560   I: conv2d_35_output                  int8(1x3x3x256) (134)      
                                                                       S: conv2d_36_scratch0                                           
                                                                       W: conv2d_36_weights                 int8(256x1x1x256) (141)    
                                                                       W: conv2d_36_bias                    int32(256) (138)           
                                                                       O: conv2d_36_output                  int8(1x3x3x256) (139)      
------ ----------------------- ----- --------------- --------- ------- ------------------------------------ -------------------------- 
45     conv2d_37_pad_before    37    Pad             0         0       I: conv2d_36_output                  int8(1x3x3x256) (139)      
                                                                       O: conv2d_37_pad_before_output       int8(1x5x5x256) (144)      
------ ----------------------- ----- --------------- --------- ------- ------------------------------------ -------------------------- 
46     conv2d_37               37    Conv2D          20992     3328    I: conv2d_37_pad_before_output       int8(1x5x5x256) (144)      
                                                                       S: conv2d_37_scratch0                                           
                                                                       W: conv2d_37_weights                 int8(1x3x3x256) (146)      
                                                                       W: conv2d_37_bias                    int32(256) (142)           
                                                                       O: conv2d_37_output                  int8(1x3x3x256) (143)      
------ ----------------------- ----- --------------- --------- ------- ------------------------------------ -------------------------- 
47     conv2d_38               38    Conv2D          590080    66560   I: conv2d_37_output                  int8(1x3x3x256) (143)      
                                                                       S: conv2d_38_scratch0                                           
                                                                       W: conv2d_38_weights                 int8(256x1x1x256) (150)    
                                                                       W: conv2d_38_bias                    int32(256) (147)           
                                                                       O: conv2d_38_output                  int8(1x3x3x256) (148)      
------ ----------------------- ----- --------------- --------- ------- ------------------------------------ -------------------------- 
48     pool_40                 40    Pool            2304      0       I: conv2d_38_output                  int8(1x3x3x256) (148)      
                                                                       O: pool_40_output                    int8(1x1x1x256) (223)      
------ ----------------------- ----- --------------- --------- ------- ------------------------------------ -------------------------- 
49     conv2d_45               45    Conv2D          8224      8320    I: pool_40_output                    int8(1x1x1x256) (223)      
                                                                       S: conv2d_45_scratch0                                           
                                                                       W: conv2d_45_weights                 int8(32x1x1x256) (162)     
                                                                       W: conv2d_45_bias                    int32(32) (159)            
                                                                       O: conv2d_45_output                  int8(1x1x1x32) (160)       
------ ----------------------- ----- --------------- --------- ------- ------------------------------------ -------------------------- 
50     conv2d_46_pad_before    46    Pad             0         0       I: conv2d_45_output                  int8(1x1x1x32) (160)       
                                                                       O: conv2d_46_pad_before_output       int8(1x3x3x32) (165)       
------ ----------------------- ----- --------------- --------- ------- ------------------------------------ -------------------------- 
51     conv2d_46               46    Conv2D          2890      2920    I: conv2d_46_pad_before_output       int8(1x3x3x32) (165)       
                                                                       S: conv2d_46_scratch0                                           
                                                                       W: conv2d_46_weights                 int8(10x3x3x32) (167)      
                                                                       W: conv2d_46_bias                    int32(10) (163)            
                                                                       O: conv2d_46_output                  int8(1x1x1x10) (164)       
------ ----------------------- ----- --------------- --------- ------- ------------------------------------ -------------------------- 
52     conv2d_51_pad_before    51    Pad             0         0       I: conv2d_45_output                  int8(1x1x1x32) (160)       
                                                                       O: conv2d_51_pad_before_output       int8(1x3x3x32) (170)       
------ ----------------------- ----- --------------- --------- ------- ------------------------------------ -------------------------- 
53     conv2d_51               51    Conv2D          5780      5840    I: conv2d_51_pad_before_output       int8(1x3x3x32) (170)       
                                                                       S: conv2d_51_scratch0                                           
                                                                       W: conv2d_51_weights                 int8(20x3x3x32) (172)      
                                                                       W: conv2d_51_bias                    int32(20) (168)            
                                                                       O: conv2d_51_output                  int8(1x1x1x20) (169)       
------ ----------------------- ----- --------------- --------- ------- ------------------------------------ -------------------------- 
54     tile_62                 62    Tile            0         0       I: conv2d_45_output                  int8(1x1x1x32) (160)       
                                                                       O: tile_62_output                    int8(1x2x2x32) (228)       
------ ----------------------- ----- --------------- --------- ------- ------------------------------------ -------------------------- 
55     pad_63                  63    Pad             0         0       I: tile_62_output                    int8(1x2x2x32) (228)       
                                                                       O: pad_63_output                     int8(1x3x3x32) (222)       
------ ----------------------- ----- --------------- --------- ------- ------------------------------------ -------------------------- 
56     conv2d_39               39    Conv2D          73760     8320    I: conv2d_38_output                  int8(1x3x3x256) (148)      
                                                                       S: conv2d_39_scratch0                                           
                                                                       W: conv2d_39_weights                 int8(32x1x1x256) (154)     
                                                                       W: conv2d_39_bias                    int32(32) (151)            
                                                                       O: conv2d_39_output                  int8(1x3x3x32) (152)       
------ ----------------------- ----- --------------- --------- ------- ------------------------------------ -------------------------- 
57     eltwise_64              64    Eltwise/add     288       0       I: conv2d_39_output                  int8(1x3x3x32) (152)       
                                                                       I: pad_63_output                     int8(1x3x3x32) (152)       
                                                                       O: eltwise_64_output                 int8(1x3x3x32) (218)       
------ ----------------------- ----- --------------- --------- ------- ------------------------------------ -------------------------- 
58     conv2d_65_pad_before    65    Pad             0         0       I: eltwise_64_output                 int8(1x3x3x32) (218)       
                                                                       O: conv2d_65_pad_before_output       int8(1x5x5x32) (180)       
------ ----------------------- ----- --------------- --------- ------- ------------------------------------ -------------------------- 
59     conv2d_65               65    Conv2D          51860     5840    I: conv2d_65_pad_before_output       int8(1x5x5x32) (180)       
                                                                       S: conv2d_65_scratch0                                           
                                                                       W: conv2d_65_weights                 int8(20x3x3x32) (182)      
                                                                       W: conv2d_65_bias                    int32(20) (178)            
                                                                       O: conv2d_65_output                  int8(1x3x3x20) (179)       
------ ----------------------- ----- --------------- --------- ------- ------------------------------------ -------------------------- 
60     conv2d_76_pad_before    76    Pad             0         0       I: eltwise_64_output                 int8(1x3x3x32) (218)       
                                                                       O: conv2d_76_pad_before_output       int8(1x5x5x32) (189)       
------ ----------------------- ----- --------------- --------- ------- ------------------------------------ -------------------------- 
61     conv2d_76               76    Conv2D          25930     2920    I: conv2d_76_pad_before_output       int8(1x5x5x32) (189)       
                                                                       S: conv2d_76_scratch0                                           
                                                                       W: conv2d_76_weights                 int8(10x3x3x32) (191)      
                                                                       W: conv2d_76_bias                    int32(10) (187)            
                                                                       O: conv2d_76_output                  int8(1x3x3x10) (188)       
------ ----------------------- ----- --------------- --------- ------- ------------------------------------ -------------------------- 
62     resize_81               81    Resize          4608      0       I: eltwise_64_output                 int8(1x3x3x32) (218)       
                                                                       O: resize_81_output                  int8(1x6x6x32) (225)       
------ ----------------------- ----- --------------- --------- ------- ------------------------------------ -------------------------- 
63     conv2d_34               34    Conv2D          294944    8320    I: conv2d_33_output                  int8(1x6x6x256) (126)      
                                                                       S: conv2d_34_scratch0                                           
                                                                       W: conv2d_34_weights                 int8(32x1x1x256) (132)     
                                                                       W: conv2d_34_bias                    int32(32) (129)            
                                                                       O: conv2d_34_output                  int8(1x6x6x32) (130)       
------ ----------------------- ----- --------------- --------- ------- ------------------------------------ -------------------------- 
64     eltwise_82              82    Eltwise/add     1152      0       I: conv2d_34_output                  int8(1x6x6x32) (130)       
                                                                       I: resize_81_output                  int8(1x6x6x32) (130)       
                                                                       O: eltwise_82_output                 int8(1x6x6x32) (219)       
------ ----------------------- ----- --------------- --------- ------- ------------------------------------ -------------------------- 
65     conv2d_83_pad_before    83    Pad             0         0       I: eltwise_82_output                 int8(1x6x6x32) (219)       
                                                                       O: conv2d_83_pad_before_output       int8(1x8x8x32) (199)       
------ ----------------------- ----- --------------- --------- ------- ------------------------------------ -------------------------- 
66     conv2d_83               83    Conv2D          103690    2920    I: conv2d_83_pad_before_output       int8(1x8x8x32) (199)       
                                                                       S: conv2d_83_scratch0                                           
                                                                       W: conv2d_83_weights                 int8(10x3x3x32) (201)      
                                                                       W: conv2d_83_bias                    int32(10) (197)            
                                                                       O: conv2d_83_output                  int8(1x6x6x10) (198)       
------ ----------------------- ----- --------------- --------- ------- ------------------------------------ -------------------------- 
67     conv2d_88_pad_before    88    Pad             0         0       I: eltwise_82_output                 int8(1x6x6x32) (219)       
                                                                       O: conv2d_88_pad_before_output       int8(1x8x8x32) (204)       
------ ----------------------- ----- --------------- --------- ------- ------------------------------------ -------------------------- 
68     conv2d_88               88    Conv2D          207380    5840    I: conv2d_88_pad_before_output       int8(1x8x8x32) (204)       
                                                                       S: conv2d_88_scratch0                                           
                                                                       W: conv2d_88_weights                 int8(20x3x3x32) (206)      
                                                                       W: conv2d_88_bias                    int32(20) (202)            
                                                                       O: conv2d_88_output                  int8(1x6x6x20) (203)       
------ ----------------------- ----- --------------- --------- ------- ------------------------------------ -------------------------- 
69     resize_99               99    Resize          18432     0       I: eltwise_82_output                 int8(1x6x6x32) (219)       
                                                                       O: resize_99_output                  int8(1x12x12x32) (226)     
------ ----------------------- ----- --------------- --------- ------- ------------------------------------ -------------------------- 
70     conv2d_28               28    Conv2D          589856    4224    I: conv2d_27_output                  int8(1x12x12x128) (99)     
                                                                       S: conv2d_28_scratch0                                           
                                                                       W: conv2d_28_weights                 int8(32x1x1x128) (105)     
                                                                       W: conv2d_28_bias                    int32(32) (102)            
                                                                       O: conv2d_28_output                  int8(1x12x12x32) (103)     
------ ----------------------- ----- --------------- --------- ------- ------------------------------------ -------------------------- 
71     eltwise_100             100   Eltwise/add     4608      0       I: conv2d_28_output                  int8(1x12x12x32) (103)     
                                                                       I: resize_99_output                  int8(1x12x12x32) (103)     
                                                                       O: eltwise_100_output                int8(1x12x12x32) (216)     
------ ----------------------- ----- --------------- --------- ------- ------------------------------------ -------------------------- 
72     conv2d_101_pad_before   101   Pad             0         0       I: eltwise_100_output                int8(1x12x12x32) (216)     
                                                                       O: conv2d_101_pad_before_output      int8(1x14x14x32) (4)       
------ ----------------------- ----- --------------- --------- ------- ------------------------------------ -------------------------- 
73     conv2d_101              101   Conv2D          414730    2920    I: conv2d_101_pad_before_output      int8(1x14x14x32) (4)       
                                                                       S: conv2d_101_scratch0                                          
                                                                       W: conv2d_101_weights                int8(10x3x3x32) (6)        
                                                                       W: conv2d_101_bias                   int32(10) (2)              
                                                                       O: conv2d_101_output                 int8(1x12x12x10) (3)       
------ ----------------------- ----- --------------- --------- ------- ------------------------------------ -------------------------- 
74     conv2d_106_pad_before   106   Pad             0         0       I: eltwise_100_output                int8(1x12x12x32) (216)     
                                                                       O: conv2d_106_pad_before_output      int8(1x14x14x32) (9)       
------ ----------------------- ----- --------------- --------- ------- ------------------------------------ -------------------------- 
75     conv2d_106              106   Conv2D          829460    5840    I: conv2d_106_pad_before_output      int8(1x14x14x32) (9)       
                                                                       S: conv2d_106_scratch0                                          
                                                                       W: conv2d_106_weights                int8(20x3x3x32) (11)       
                                                                       W: conv2d_106_bias                   int32(20) (7)              
                                                                       O: conv2d_106_output                 int8(1x12x12x20) (8)       
------ ----------------------- ----- --------------- --------- ------- ------------------------------------ -------------------------- 
76     resize_117              117   Resize          73728     0       I: eltwise_100_output                int8(1x12x12x32) (216)     
                                                                       O: resize_117_output                 int8(1x24x24x32) (224)     
------ ----------------------- ----- --------------- --------- ------- ------------------------------------ -------------------------- 
77     conv2d_14               14    Conv2D          1179680   2176    I: conv2d_13_output                  int8(1x24x24x64) (37)      
                                                                       S: conv2d_14_scratch0                                           
                                                                       W: conv2d_14_weights                 int8(32x1x1x64) (43)       
                                                                       W: conv2d_14_bias                    int32(32) (40)             
                                                                       O: conv2d_14_output                  int8(1x24x24x32) (41)      
------ ----------------------- ----- --------------- --------- ------- ------------------------------------ -------------------------- 
78     eltwise_118             118   Eltwise/add     18432     0       I: conv2d_14_output                  int8(1x24x24x32) (41)      
                                                                       I: resize_117_output                 int8(1x24x24x32) (41)      
                                                                       O: eltwise_118_output                int8(1x24x24x32) (217)     
------ ----------------------- ----- --------------- --------- ------- ------------------------------------ -------------------------- 
79     conv2d_119_pad_before   119   Pad             0         0       I: eltwise_118_output                int8(1x24x24x32) (217)     
                                                                       O: conv2d_119_pad_before_output      int8(1x26x26x32) (19)      
------ ----------------------- ----- --------------- --------- ------- ------------------------------------ -------------------------- 
80     conv2d_119              119   Conv2D          1658890   2920    I: conv2d_119_pad_before_output      int8(1x26x26x32) (19)      
                                                                       S: conv2d_119_scratch0                                          
                                                                       W: conv2d_119_weights                int8(10x3x3x32) (21)       
                                                                       W: conv2d_119_bias                   int32(10) (17)             
                                                                       O: conv2d_119_output                 int8(1x24x24x10) (18)      
------ ----------------------- ----- --------------- --------- ------- ------------------------------------ -------------------------- 
81     concat_124              124   Concat          0         0       I: conv2d_119_output                 int8(1x24x24x10) (18)      
                                                                       I: conv2d_101_output                 int8(1x24x24x10) (18)      
                                                                       I: conv2d_83_output                  int8(1x24x24x10) (18)      
                                                                       I: conv2d_76_output                  int8(1x24x24x10) (18)      
                                                                       I: conv2d_46_output                  int8(1x24x24x10) (18)      
                                                                       O: concat_124_output                 int8(1x3830x2) (0)         
------ ----------------------- ----- --------------- --------- ------- ------------------------------------ -------------------------- 
82     nl_125                  125   Nonlinearity    114900    0       I: concat_124_output                 int8(1x3830x2) (0)         
                                                                       S: nl_125_scratch0                                              
                                                                       O: nl_125_output                     int8(1x3830x2) (220)       
------ ----------------------- ----- --------------- --------- ------- ------------------------------------ -------------------------- 
83     conversion_126          126   Conversion      15320     0       I: nl_125_output                     int8(1x3830x2) (220)       
                                                                       O: conversion_126_output             f32(1x3830x2) (212)        
------ ----------------------- ----- --------------- --------- ------- ------------------------------------ -------------------------- 
84     conv2d_127_pad_before   127   Pad             0         0       I: eltwise_118_output                int8(1x24x24x32) (217)     
                                                                       O: conv2d_127_pad_before_output      int8(1x26x26x32) (28)      
------ ----------------------- ----- --------------- --------- ------- ------------------------------------ -------------------------- 
85     conv2d_127              127   Conv2D          3317780   5840    I: conv2d_127_pad_before_output      int8(1x26x26x32) (28)      
                                                                       S: conv2d_127_scratch0                                          
                                                                       W: conv2d_127_weights                int8(20x3x3x32) (30)       
                                                                       W: conv2d_127_bias                   int32(20) (26)             
                                                                       O: conv2d_127_output                 int8(1x24x24x20) (27)      
------ ----------------------- ----- --------------- --------- ------- ------------------------------------ -------------------------- 
86     concat_132              132   Concat          0         0       I: conv2d_127_output                 int8(1x24x24x20) (27)      
                                                                       I: conv2d_106_output                 int8(1x24x24x20) (27)      
                                                                       I: conv2d_88_output                  int8(1x24x24x20) (27)      
                                                                       I: conv2d_65_output                  int8(1x24x24x20) (27)      
                                                                       I: conv2d_51_output                  int8(1x24x24x20) (27)      
                                                                       O: concat_132_output                 int8(1x3830x4) (1)         
------ ----------------------- ----- --------------- --------- ------- ------------------------------------ -------------------------- 
87     conversion_133          133   Conversion      30640     0       I: concat_132_output                 int8(1x3830x4) (1)         
                                                                       O: conversion_133_output             f32(1x3830x4) (213)        
------ ----------------------- ----- --------------- --------- ------- ------------------------------------ -------------------------- 



Number of operations per c-layer
------- ------ -------------------------------------- ------------ -------------- 
c_id    m_id   name (type)                                     #op           type 
------- ------ -------------------------------------- ------------ -------------- 
0       141    conversion_141_const_output (Concat)              0   smul_f32_f32 
1       0      conversion_0 (Conversion)                   221,184     smul_u8_s8 
2       1      conv2d_1 (Conv2D)                         1,990,664     smul_s8_s8 
3       2      conv2d_2_pad_before (Pad)                         0     smul_s8_s8 
4       2      conv2d_2 (Conv2D)                           663,560     smul_s8_s8 
5       3      conv2d_3 (Conv2D)                         1,179,664     smul_s8_s8 
6       4      conv2d_5_pad_before (Pad)                         0     smul_s8_s8 
7       5      conv2d_5 (Conv2D)                           331,792     smul_s8_s8 
8       6      conv2d_6 (Conv2D)                         1,179,680     smul_s8_s8 
9       7      conv2d_7_pad_before (Pad)                         0     smul_s8_s8 
10      7      conv2d_7 (Conv2D)                           663,584     smul_s8_s8 
11      8      conv2d_8 (Conv2D)                         2,359,328     smul_s8_s8 
12      9      conv2d_10_pad_before (Pad)                        0     smul_s8_s8 
13      10     conv2d_10 (Conv2D)                          165,920     smul_s8_s8 
14      11     conv2d_11 (Conv2D)                        1,179,712     smul_s8_s8 
15      12     conv2d_12_pad_before (Pad)                        0     smul_s8_s8 
16      12     conv2d_12 (Conv2D)                          331,840     smul_s8_s8 
17      13     conv2d_13 (Conv2D)                        2,359,360     smul_s8_s8 
18      15     conv2d_16_pad_before (Pad)                        0     smul_s8_s8 
19      16     conv2d_16 (Conv2D)                           83,008     smul_s8_s8 
20      17     conv2d_17 (Conv2D)                        1,179,776     smul_s8_s8 
21      18     conv2d_18_pad_before (Pad)                        0     smul_s8_s8 
22      18     conv2d_18 (Conv2D)                          166,016     smul_s8_s8 
23      19     conv2d_19 (Conv2D)                        2,359,424     smul_s8_s8 
24      20     conv2d_20_pad_before (Pad)                        0     smul_s8_s8 
25      20     conv2d_20 (Conv2D)                          166,016     smul_s8_s8 
26      21     conv2d_21 (Conv2D)                        2,359,424     smul_s8_s8 
27      22     conv2d_22_pad_before (Pad)                        0     smul_s8_s8 
28      22     conv2d_22 (Conv2D)                          166,016     smul_s8_s8 
29      23     conv2d_23 (Conv2D)                        2,359,424     smul_s8_s8 
30      24     conv2d_24_pad_before (Pad)                        0     smul_s8_s8 
31      24     conv2d_24 (Conv2D)                          166,016     smul_s8_s8 
32      25     conv2d_25 (Conv2D)                        2,359,424     smul_s8_s8 
33      26     conv2d_26_pad_before (Pad)                        0     smul_s8_s8 
34      26     conv2d_26 (Conv2D)                          166,016     smul_s8_s8 
35      27     conv2d_27 (Conv2D)                        2,359,424     smul_s8_s8 
36      29     conv2d_30_pad_before (Pad)                        0     smul_s8_s8 
37      30     conv2d_30 (Conv2D)                           41,600     smul_s8_s8 
38      31     conv2d_31 (Conv2D)                        1,179,904     smul_s8_s8 
39      32     conv2d_32_pad_before (Pad)                        0     smul_s8_s8 
40      32     conv2d_32 (Conv2D)                           83,200     smul_s8_s8 
41      33     conv2d_33 (Conv2D)                        2,359,552     smul_s8_s8 
42      35     conv2d_35_pad_before (Pad)                        0     smul_s8_s8 
43      35     conv2d_35 (Conv2D)                           20,992     smul_s8_s8 
44      36     conv2d_36 (Conv2D)                          590,080     smul_s8_s8 
45      37     conv2d_37_pad_before (Pad)                        0     smul_s8_s8 
46      37     conv2d_37 (Conv2D)                           20,992     smul_s8_s8 
47      38     conv2d_38 (Conv2D)                          590,080     smul_s8_s8 
48      40     pool_40 (Pool)                                2,304     smul_s8_s8 
49      45     conv2d_45 (Conv2D)                            8,224     smul_s8_s8 
50      46     conv2d_46_pad_before (Pad)                        0     smul_s8_s8 
51      46     conv2d_46 (Conv2D)                            2,890     smul_s8_s8 
52      51     conv2d_51_pad_before (Pad)                        0     smul_s8_s8 
53      51     conv2d_51 (Conv2D)                            5,780     smul_s8_s8 
54      62     tile_62 (Tile)                                    0     smul_s8_s8 
55      63     pad_63 (Pad)                                      0     smul_s8_s8 
56      39     conv2d_39 (Conv2D)                           73,760     smul_s8_s8 
57      64     eltwise_64 (Eltwise/add)                        288       op_s8_s8 
58      65     conv2d_65_pad_before (Pad)                        0     smul_s8_s8 
59      65     conv2d_65 (Conv2D)                           51,860     smul_s8_s8 
60      76     conv2d_76_pad_before (Pad)                        0     smul_s8_s8 
61      76     conv2d_76 (Conv2D)                           25,930     smul_s8_s8 
62      81     resize_81 (Resize)                            4,608     smul_s8_s8 
63      34     conv2d_34 (Conv2D)                          294,944     smul_s8_s8 
64      82     eltwise_82 (Eltwise/add)                      1,152       op_s8_s8 
65      83     conv2d_83_pad_before (Pad)                        0     smul_s8_s8 
66      83     conv2d_83 (Conv2D)                          103,690     smul_s8_s8 
67      88     conv2d_88_pad_before (Pad)                        0     smul_s8_s8 
68      88     conv2d_88 (Conv2D)                          207,380     smul_s8_s8 
69      99     resize_99 (Resize)                           18,432     smul_s8_s8 
70      28     conv2d_28 (Conv2D)                          589,856     smul_s8_s8 
71      100    eltwise_100 (Eltwise/add)                     4,608       op_s8_s8 
72      101    conv2d_101_pad_before (Pad)                       0     smul_s8_s8 
73      101    conv2d_101 (Conv2D)                         414,730     smul_s8_s8 
74      106    conv2d_106_pad_before (Pad)                       0     smul_s8_s8 
75      106    conv2d_106 (Conv2D)                         829,460     smul_s8_s8 
76      117    resize_117 (Resize)                          73,728     smul_s8_s8 
77      14     conv2d_14 (Conv2D)                        1,179,680     smul_s8_s8 
78      118    eltwise_118 (Eltwise/add)                    18,432       op_s8_s8 
79      119    conv2d_119_pad_before (Pad)                       0     smul_s8_s8 
80      119    conv2d_119 (Conv2D)                       1,658,890     smul_s8_s8 
81      124    concat_124 (Concat)                               0     smul_s8_s8 
82      125    nl_125 (Nonlinearity)                       114,900       op_s8_s8 
83      126    conversion_126 (Conversion)                  15,320    smul_s8_f32 
84      127    conv2d_127_pad_before (Pad)                       0     smul_s8_s8 
85      127    conv2d_127 (Conv2D)                       3,317,780     smul_s8_s8 
86      132    concat_132 (Concat)                               0     smul_s8_s8 
87      133    conversion_133 (Conversion)                  30,640    smul_s8_f32 
------- ------ -------------------------------------- ------------ -------------- 
total                                                   40,451,938 

Number of operation types
---------------- ------------ ----------- 
operation type              #           % 
---------------- ------------ ----------- 
smul_f32_f32                0        0.0% 
smul_u8_s8            221,184        0.5% 
smul_s8_s8         40,045,414       99.0% 
op_s8_s8              139,380        0.3% 
smul_s8_f32            45,960        0.1% 

Complexity report (model)
------ -------------------------- ------------------------- ------------------------- ---------- 
m_id   name                       c_macc                    c_rom                     c_id       
------ -------------------------- ------------------------- ------------------------- ---------- 
0      serving_default_input_10   |                  0.5%   |                  0.0%   [1]        
1      conv2d_1                   |||||||||          4.9%   |                  0.1%   [2]        
2      conv2d_2                   ||||               1.6%   |                  0.0%   [3, 4]     
3      conv2d_3                   ||||||             2.9%   |                  0.0%   [5]        
4      pad_4                      |                  0.0%   |                  0.0%   [6]        
5      conv2d_5                   ||                 0.8%   |                  0.0%   [7]        
6      conv2d_6                   ||||||             2.9%   |                  0.1%   [8]        
7      conv2d_7                   ||||               1.6%   |                  0.1%   [9, 10]    
8      conv2d_8                   |||||||||||        5.8%   |                  0.2%   [11]       
9      pad_9                      |                  0.0%   |                  0.0%   [12]       
10     conv2d_10                  |                  0.4%   |                  0.1%   [13]       
11     conv2d_11                  ||||||             2.9%   |                  0.5%   [14]       
12     conv2d_12                  ||                 0.8%   |                  0.2%   [15, 16]   
13     conv2d_13                  |||||||||||        5.8%   |                  0.9%   [17]       
14     conv2d_14                  ||||||             2.9%   |                  0.4%   [77]       
15     pad_15                     |                  0.0%   |                  0.0%   [18]       
16     conv2d_16                  |                  0.2%   |                  0.2%   [19]       
17     conv2d_17                  ||||||             2.9%   ||                 1.8%   [20]       
18     conv2d_18                  |                  0.4%   |                  0.3%   [21, 22]   
19     conv2d_19                  |||||||||||        5.8%   ||||               3.4%   [23]       
20     conv2d_20                  |                  0.4%   |                  0.3%   [24, 25]   
21     conv2d_21                  |||||||||||        5.8%   ||||               3.4%   [26]       
22     conv2d_22                  |                  0.4%   |                  0.3%   [27, 28]   
23     conv2d_23                  |||||||||||        5.8%   ||||               3.4%   [29]       
24     conv2d_24                  |                  0.4%   |                  0.3%   [30, 31]   
25     conv2d_25                  |||||||||||        5.8%   ||||               3.4%   [32]       
26     conv2d_26                  |                  0.4%   |                  0.3%   [33, 34]   
27     conv2d_27                  |||||||||||        5.8%   ||||               3.4%   [35]       
28     conv2d_28                  |||                1.5%   |                  0.9%   [70]       
29     pad_29                     |                  0.0%   |                  0.0%   [36]       
30     conv2d_30                  |                  0.1%   |                  0.3%   [37]       
31     conv2d_31                  ||||||             2.9%   ||||||||           6.8%   [38]       
32     conv2d_32                  |                  0.2%   |                  0.7%   [39, 40]   
33     conv2d_33                  |||||||||||        5.8%   ||||||||||||||||  13.5%   [41]       
34     conv2d_34                  ||                 0.7%   ||                 1.7%   [63]       
35     conv2d_35                  |                  0.1%   |                  0.7%   [42, 43]   
36     conv2d_36                  |||                1.5%   ||||||||||||||||  13.5%   [44]       
37     conv2d_37                  |                  0.1%   |                  0.7%   [45, 46]   
38     conv2d_38                  |||                1.5%   ||||||||||||||||  13.5%   [47]       
39     conv2d_39                  |                  0.2%   ||                 1.7%   [56]       
40     pool_40                    |                  0.0%   |                  0.0%   [48]       
45     conv2d_45                  |                  0.0%   ||                 1.7%   [49]       
46     conv2d_46                  |                  0.0%   |                  0.6%   [50, 51]   
51     conv2d_51                  |                  0.0%   ||                 1.2%   [52, 53]   
62     tile_62                    |                  0.0%   |                  0.0%   [54]       
63     pad_63                     |                  0.0%   |                  0.0%   [55]       
64     eltwise_64                 |                  0.0%   |                  0.0%   [57]       
65     conv2d_65                  |                  0.1%   ||                 1.2%   [58, 59]   
76     conv2d_76                  |                  0.1%   |                  0.6%   [60, 61]   
81     resize_81                  |                  0.0%   |                  0.0%   [62]       
82     eltwise_82                 |                  0.0%   |                  0.0%   [64]       
83     conv2d_83                  |                  0.3%   |                  0.6%   [65, 66]   
88     conv2d_88                  |                  0.5%   ||                 1.2%   [67, 68]   
99     resize_99                  |                  0.0%   |                  0.0%   [69]       
100    eltwise_100                |                  0.0%   |                  0.0%   [71]       
101    conv2d_101                 ||                 1.0%   |                  0.6%   [72, 73]   
106    conv2d_106                 ||||               2.1%   ||                 1.2%   [74, 75]   
117    resize_117                 |                  0.2%   |                  0.0%   [76]       
118    eltwise_118                |                  0.0%   |                  0.0%   [78]       
119    conv2d_119                 ||||||||           4.1%   |                  0.6%   [79, 80]   
124    concat_124                 |                  0.0%   |                  0.0%   [81]       
125    nl_125                     |                  0.3%   |                  0.0%   [82]       
126    conversion_126             |                  0.0%   |                  0.0%   [83]       
127    conv2d_127                 ||||||||||||||||   8.2%   ||                 1.2%   [84, 85]   
132    concat_132                 |                  0.0%   |                  0.0%   [86]       
133    conversion_133             |                  0.1%   |                  0.0%   [87]       
141    conversion_141_const       |                  0.0%   ||||||||||||||    12.4%   [0]        
------ -------------------------- ------------------------- ------------------------- ---------- 
macc=40,451,938 weights=494,760 act=246,256 ram_io=0
 
 Requested memory size by section - "stm32h7" target
 ------------------------------ -------- --------- ------- --------- 
 module                             text    rodata    data       bss 
 ------------------------------ -------- --------- ------- --------- 
 network.o                        12,676    16,944   3,672       112 
 NetworkRuntime1100_CM7_GCC.a     24,996         0       0         0 
 lib (toolchain)*                      0         0       0         0 
 ------------------------------ -------- --------- ------- --------- 
 RT total**                       37,672    16,944   3,672       112 
 ------------------------------ -------- --------- ------- --------- 
 weights                               0   494,760       0         0 
 activations                           0         0       0   246,256 
 states                                0         0       0         0 
 io                                    0         0       0         0 
 ------------------------------ -------- --------- ------- --------- 
 TOTAL                            37,672   511,704   3,672   246,368 
 ------------------------------ -------- --------- ------- --------- 
 *  toolchain objects (libm/libgcc*)
 ** RT AI runtime objects (kernels+infrastructure)
  
  Summary - "stm32h7" target
  --------------------------------------------------
               FLASH (ro)      %*   RAM (rw)      % 
  --------------------------------------------------
  RT total         58,288   10.5%      3,784   1.5% 
  --------------------------------------------------
  TOTAL           553,048            250,040        
  --------------------------------------------------
  *  rt/total


Generated files (5)
--------------------------------------------------------------------------------------------------------------------------- 
STM32H7-GettingStarted-ObjectDetection/Application/Network/st_ai_output/network_data.h      
STM32H7-GettingStarted-ObjectDetection/Application/Network/st_ai_output/network_data.c      
STM32H7-GettingStarted-ObjectDetection/Application/Network/st_ai_output/network.h           
STM32H7-GettingStarted-ObjectDetection/Application/Network/st_ai_output/network.c           
STM32H7-GettingStarted-ObjectDetection/Application/Network/st_ai_output/network_details.h   
